Data/Black/params_vs_random_v2.pth (torch, 276160 bytes, 5 tensors)

linear1.weight f4 [128, 13]
0	0xbe711e83	-0.23546796
1	0x3c4a75c1	0.012357176
2	0x3e8c5139	0.27405718
3	0x3cc78b75	0.02435849
4	0xbc2b3f4c	-0.010452103
5	0xbd8b4491	-0.068001874
6	0xbe5d6a63	-0.21622615
7	0xbe1ba394	-0.15199119
8	0x3e30f9a9	0.17282738
9	0x3cdf9da8	0.027296856
10	0x3e21ed31	0.15813138
11	0xbe89ab18	-0.26888347
12	0xbdb8eaa6	-0.09029131
13	0xbe332e94	-0.17498237
14	0xbe00305b	-0.12518446
15	0x3e942193	0.28931865
16	0x3e876a11	0.2644811
17	0x3d155ba9	0.036464367
18	0xbe2d632e	-0.16932365
19	0xbd05148c	-0.0324903
20	0x3e46a292	0.19397953
21	0xbe1ea2a6	-0.15491733
22	0xbd9a686f	-0.075394504
23	0xbdb41a45	-0.08794073
24	0xbe1a1496	-0.15046915
25	0x3e2e22fc	0.17005533
26	0xbe81ed1e	-0.2537622
27	0xbdd46f86	-0.10372834
28	0xbe87fddb	-0.26560864
29	0x3e33f65d	0.17574449
30	0xbe4d075b	-0.20022337
31	0x3c25f06c	0.010128122
32	0xbe4ed18b	-0.20197122
33	0x3dc25221	0.09488321
34	0xbdb5c0c2	-0.08874656
35	0x3e039d1c	0.12852901
36	0x3dc91524	0.098184854
37	0x3d0a62c8	0.03378561
38	0xbe27177c	-0.16317552
39	0xbb5dd7e7	-0.0033850612
40	0x3e283da1	0.1642976
41	0xbd4f4229	-0.050600205
42	0xbe158969	-0.14603199
43	0xbe0c7165	-0.13715132
44	0x3df0127a	0.11722274
45	0xbe947ca9	-0.29001358
46	0xbd43ee7d	-0.047834862
47	0x3e56ab99	0.20963897
48	0xbd11d62e	-0.03560465
49	0x3e131bce	0.14366075
50	0x3e14a912	0.1451762
51	0x3e0aa9a9	0.13541283
52	0x3dd7ffe2	0.10546853
53	0x3e64921a	0.22321358
54	0x3dc7bb6d	0.097525455
55	0x3e8deb3f	0.2771854
56	0xbd4aba68	-0.049494177
57	0xbe9b0032	-0.30273587
58	0x3ddb9008	0.10720831
59	0xbe4bdefc	-0.1990928
60	0xbe26d2ed	-0.162914
61	0x3e530eca	0.2061111
62	0x3d2cb7e1	0.042167548
63	0x3e99505c	0.29944122
64	0xbe55ebe3	-0.20890765
65	0xbe95b744	-0.29241383
66	0x3e8ba1e9	0.27271965
67	0x3e840993	0.25788555
68	0xbdd82b4f	-0.105551355
69	0xbde105b8	-0.10987419
70	0xbe436974	-0.19083196
71	0xbe66f23b	-0.22553341
72	0xbe05841c	-0.13038677
73	0x3db815ab	0.08988508
74	0x3c15a8e6	0.009134507
75	0x3ea2ae0d	0.31773415
76	0xbccc204a	-0.02491774
77	0xbe6286a8	-0.2212168
78	0x3d0d6f91	0.034530226
79	0xbe0f2dae	-0.13982269
80	0x3e3cad8c	0.18425578
81	0x3e24e848	0.16104233
82	0x3e963123	0.29334363
83	0xbe4b269c	-0.19838947
84	0xbe1f8667	-0.15578614
85	0x3e10374b	0.14083593
86	0xbc72fad7	-0.014830313
87	0x3cbab25d	0.022790128
88	0xbd4daa2e	-0.050211124
89	0xbdaf9ec5	-0.08575205
90	0xbb9fb303	-0.004873635
91	0x3e7031e0	0.23456526
92	0x3e88fb66	0.26754302
93	0xbe0faabd	-0.14029975
94	0x3e06deae	0.13170883
95	0xbe3b3cc8	-0.18284905
96	0x3da64774	0.08119097
97	0xbe082116	-0.13293871
98	0x3e2703be	0.16310021
99	0x3de3ed9d	0.111293055
100	0xbdd93248	-0.106052935
101	0xbd6a0652	-0.057134934
102	0x3e822c52	0.2542444
103	0xbc079eee	-0.008277638
104	0x3dd6c7e8	0.10487348
105	0x3e472b54	0.19450122
106	0x3e35c6f6	0.17751679
107	0x3e2305e4	0.15920216
108	0xbe234326	-0.15943584
109	0xbe83ee27	-0.25767633
110	0xbe377c13	-0.17918424
111	0x3c1f0f9f	0.009708314
112	0xbc9e37d0	-0.019313723
113	0x3d8fabb9	0.07015175
114	0x3cc95509	0.02457668
115	0x3e737dac	0.23778409
116	0xbe720b88	-0.23637211
117	0x3e7cbe81	0.24682046
118	0xbdd3ae12	-0.10335936
119	0x3e47eb1c	0.19523281
120	0x3e15fbf6	0.14646897
121	0xbdc5f9d2	-0.0966679
122	0x3e5a858e	0.2134001
123	0x3e3ddd8e	0.18541548
124	0x3e6d4803	0.23172002
125	0x3db1e098	0.08685416
126	0x3da41128	0.08011085
127	0x3e0c5f8b	0.13708322
128	0xbcaa0a86	-0.020756971
129	0x3ead1b3f	0.3380985
130	0x3e21a802	0.15786746
131	0xbdd99be5	-0.10625438
132	0x3e62a8d8	0.22134721
133	0xbe17c9dd	-0.14823098
134	0xbdfac6f5	-0.12244979
135	0xbdeb3a43	-0.11485722
136	0xbe468936	-0.1938828
137	0xbe1fcda8	-0.15605795
138	0x3e22fd6e	0.15916988
139	0x3e889c21	0.26681617
140	0x3e0fc969	0.14041676
141	0xbc0028fe	-0.007822273
142	0x3e4173c5	0.18891819
143	0x3d6b9d4f	0.057523068
144	0xbe0e3644	-0.13887888
145	0xbe4780ca	-0.19482723
146	0x3e3dbb45	0.18528469
147	0x3e6974b7	0.2279843
148	0xbe41e2ef	-0.18934225
149	0x3e5e8de6	0.21733817
150	0x3d0ea994	0.03482969
151	0xbcb18419	-0.021669434
152	0xbbdbfd61	-0.0067135547
153	0x3e6fce54	0.23418552
154	0x3ea47d10	0.32126665
155	0x3e7f9b87	0.24961673
156	0xbdb8e2d1	-0.09027637
157	0x3e9dcdbb	0.30821022
158	0xbe729a54	-0.23691684
159	0x3ceec168	0.029144958
160	0xbe2c5828	-0.16830504
161	0xbe8b0007	-0.27148458
162	0x3e69ef9b	0.22845308
163	0xbe8341f4	-0.25636256
164	0x3ca19bc0	0.019727588
165	0x3e1831ed	0.14862795
166	0x3cf6d1ae	0.03012928
167	0xbe0c0bec	-0.13676423
168	0x3e8d1297	0.27553245
169	0x3e7947bf	0.24343775
170	0x3e438f86	0.19097719
171	0xbd0ab78d	-0.033866454
172	0x3deda6fe	0.11604117
173	0xbe04f83a	-0.12985316
174	0xbea529e5	-0.32258525
175	0x3e2c47ac	0.16824216
176	0x3e6e35b7	0.23262678
177	0xbe98ea00	-0.29866028
178	0x3e592076	0.21203789
179	0xbd2473a4	-0.040149346
180	0xbe0c1050	-0.13678098
181	0xbc47869b	-0.012178089
182	0x3e936312	0.28786522
183	0x3e1019b8	0.14072311
184	0x3e4652b9	0.19367494
185	0xb9ffd2ff	-0.00048794594
186	0x3e3f6514	0.18690902
187	0xbdc3eec5	-0.09567026
188	0x3d21505a	0.03938327
189	0x3df87db1	0.12133349
190	0xbe73467e	-0.2375736
191	0xbe50a17c	-0.20374101
192	0x3e3fcff6	0.18731675
193	0x3d254f03	0.040358555
194	0x3df58824	0.119888574
195	0x3d2d2ab6	0.04227706
196	0xbd7e727d	-0.062120903
197	0xbe590a57	-0.2119535
198	0x3d33badd	0.04387938
199	0xbe593c2c	-0.2121436
200	0xbe85547b	-0.26041016
201	0x3e07b789	0.13253607
202	0x3e0dfa5f	0.1386504
203	0x3ea27cad	0.31735745
204	0x3e1a49ee	0.15067264
205	0xbea96044	-0.33081257
206	0xbd932140	-0.07184076
207	0x3d502596	0.050817095
208	0x3d3e8544	0.04651381
209	0xbe098ad7	-0.1343187
210	0xbe63bb5b	-0.22239439
211	0xbd8360e0	-0.06414962
212	0xbe835f22	-0.25658518
213	0x3e9e29c3	0.30891237
214	0xbcd9b4f9	-0.026575552
215	0xbdf16c91	-0.117882855
216	0x3e83ad44	0.2571813
217	0xbdd756f6	-0.10514633
218	0x3e42c471	0.19020249
219	0xbe5b45e9	-0.21413387
220	0x3e8138d4	0.2523867
221	0xbdbadbea	-0.091239765
222	0x3ea27c1d	0.31735316
223	0xbe36d56d	-0.17854853
224	0x3b45bcad	0.0030172274
225	0x3d985d35	0.07439653
226	0x3db7ae79	0.08968825
227	0x3e48c8e7	0.19607888
228	0xbe0cb579	-0.13741101
229	0x3cbc83c0	0.023012042
230	0xbd22e901	-0.03977299
231	0xbe706342	-0.23475364
232	0x3e2eadbd	0.17058463
233	0x3e84368e	0.25822872
234	0x3e52325e	0.20527026
235	0x3e912e16	0.28355473
236	0xbe0e27b7	-0.13882338
237	0xbe0d705e	-0.13812396
238	0xbe68209d	-0.22668691
239	0xbe7ee1f1	-0.24890877
240	0xbe325942	-0.17416862
241	0x3e6d9a8f	0.2320349
242	0x3e5ba71b	0.21450464
243	0x3e2604a8	0.16212714
244	0xbe8aa65f	-0.27080056
245	0xbe66ec15	-0.22550996
246	0xbd1db7a7	-0.038505223
247	0x3e877f06	0.264641
248	0x3e6843cf	0.22682117
249	0xbe56f6be	-0.20992562
250	0x3e913b23	0.2836543
251	0x3e168559	0.14699306
252	0x3e528278	0.20557582
253	0x3e2baa75	0.16764243
254	0xbe269d49	-0.16270937
255	0x3c81efac	0.015861355

linear1.bias f4 [128]
0	0x3d7199fe	0.05898475
1	0xbdbbfc9e	-0.09179042
2	0x3c1fe5ab	0.009759347
3	0x3e7f6513	0.249409
4	0x3b5e52d5	0.0033923883
5	0x3e36e030	0.17858958
6	0xbde44b5d	-0.11147187
7	0x3e6eeaf9	0.23331822
8	0xbc4642a8	-0.012100853
9	0xbe6bab08	-0.23014462
10	0x3e517e97	0.20458446
11	0x3dba3f68	0.09094125
12	0x3d0d7daa	0.03454367
13	0x3dbbadd7	0.09164017
14	0xbe65bbd6	-0.22434935
15	0xbe40dd17	-0.18834339
16	0x3e8662e0	0.2624731
17	0xbe7f9184	-0.24957854
18	0x3e64ac0f	0.2233126
19	0x3e8824d9	0.26590613
20	0x3e655cf8	0.22398746
21	0xbd761158	-0.060075134
22	0xbe7375b6	-0.23775372
23	0xbd0c9e8f	-0.0343309
24	0xbe4b91bb	-0.1987981
25	0xbe3e5103	-0.18585591
26	0x3d3c8a4b	0.046030324
27	0x3e293cfb	0.16527168
28	0x3e71f94c	0.23630255
29	0xbddf97d8	-0.10917634
30	0xbe767235	-0.24067004
31	0x3e9066c3	0.282034
32	0x3dc37f7a	0.095457986
33	0x3d156369	0.036471758
34	0x3e590c6b	0.21196143
35	0x3e1ae757	0.15127312
36	0xbe2db259	-0.16962565
37	0x3e12566c	0.1429078
38	0x3d2053d6	0.039142452
39	0xbcd5d1ca	-0.026101012
40	0x3e90e813	0.2830206
41	0xbe6eb606	-0.23311624
42	0x3e293264	0.16523129
43	0xbe42301c	-0.18963665
44	0x3caf589e	0.02140456
45	0x3dc4d122	0.096102014
46	0xbb4d99a2	-0.003137209
47	0x3e22f212	0.15912655
48	0x3e954aa5	0.29158512
49	0xbc638b31	-0.013888166
50	0x3e70df0f	0.2352259
51	0x3dfba66c	0.12287602
52	0x3e9112ee	0.28334755
53	0x3dbfaa58	0.09358662
54	0xbcb7e107	-0.022446169
55	0x3e06727b	0.13129608
56	0x3e00697e	0.12540242
57	0x3e5748f7	0.21023928
58	0x3e1c395b	0.15256254
59	0x3e7ad638	0.2449578
60	0x3e4f920e	0.20270559
61	0xbe622a94	-0.22086555
62	0x3e5ea180	0.21741295
63	0xbe8c0bb8	-0.2735269
64	0x3da89b07	0.08232694
65	0x3e279e6d	0.16369028
66	0xbe831595	-0.25602403
67	0x3ce7c94e	0.028294232
68	0xbe5fbc32	-0.21849135
69	0x3e9a37fd	0.3012084
70	0xbe4bc5f1	-0.19899727
71	0xbd9c10e1	-0.07620407
72	0xbd585346	-0.05281379
73	0xbe79169b	-0.2432503
74	0xbe2baaa8	-0.16764319
75	0xbe7dfafa	-0.24802771
76	0xbe49f92b	-0.19723956
77	0x3ea1d8e8	0.316108
78	0x3d595be5	0.053066153
79	0xbd7a613f	-0.061127897
80	0x3d91e29b	0.071233
81	0xbc74c441	-0.014939369
82	0x3e492505	0.19643028
83	0xbe0e4977	-0.13895212
84	0x3d95b09b	0.073090754
85	0x3e8ac07f	0.27099988
86	0x3d1b934d	0.037982274
87	0xbe1319a9	-0.14365257
88	0xbdcde4c3	-0.100533985
89	0x3e887f85	0.2665979
90	0x3d023771	0.031791154
91	0x3e178002	0.14794925
92	0x3e68a11b	0.22717707
93	0xbdd989e9	-0.106220074
94	0x3b89bbf9	0.0042033163
95	0xbe851afd	-0.25997153
96	0x3dc39da2	0.095515504
97	0x3dcd058e	0.10010825
98	0x3e41da4b	0.18930928
99	0x3e1cc185	0.15308197
100	0xbe5d5d88	-0.2161771
101	0x3e2018dc	0.15634483
102	0xbe26d59c	-0.16292423
103	0x3e7ad4ad	0.24495192
104	0x3d245a5d	0.04012524
105	0xbd41c802	-0.047309883
106	0x3e872326	0.26394004
107	0xbd227629	-0.039663468
108	0xbca60e0d	-0.020270372
109	0x3d89c35c	0.06726715
110	0xbd00bc77	-0.031429734
111	0xbe4afaae	-0.19822189
112	0xbe128d6c	-0.1431176
113	0xbe76949a	-0.24080124
114	0xbe606321	-0.21912815
115	0xbd056135	-0.032563407
116	0x3dfca508	0.12336165
117	0xbd18c54f	-0.037297543
118	0x3e892bc1	0.26791194
119	0x3dc6ce76	0.09707348
120	0x3e29f959	0.16599025
121	0x3e3b209f	0.18274163
122	0xbdb4963d	-0.08817718
123	0xbe25e810	-0.16201806
124	0xbba5d73c	-0.0050610583
125	0x3e7508df	0.23929165
126	0x3e1b7ca1	0.15184261
127	0xbdd10da9	-0.102076836

linear2.weight f4 [512, 128]
0	0x3d640e34	0.055677608
1	0x3ce3c76a	0.027805049
2	0xbdced6f6	-0.10099594
3	0x3d3ffbdc	0.04687105
4	0x3cb3a609	0.021929758
5	0x3c662376	0.0140465405
6	0xbd420f5a	-0.04737792
7	0x3d7b3d41	0.061337713
8	0x3cc4f126	0.02404077
9	0x3d85e9bb	0.06538721
10	0xbd843cc0	-0.064569
11	0x3c16b16b	0.009197573
12	0x3d47bd5f	0.048764583
13	0xbc270af3	-0.010195482
14	0x3cfb9074	0.030708529
15	0x3b9f8c26	0.004869002
16	0xbd55e798	-0.052222818
17	0xbd4ac625	-0.04950537
18	0xbd882efb	-0.06649586
19	0xbc8b9a4b	-0.017041346
20	0x3d120418	0.035648435
21	0xbc8cd7ac	-0.017192684
22	0x3d5dbd12	0.05413539
23	0xbcbb7ca2	-0.022886578
24	0x3dcb0424	0.09912899
25	0x3d2fbc59	0.04290423
26	0xbcf04829	-0.029331284
27	0xbcb8875e	-0.022525486
28	0xbd8be9ad	-0.068316795
29	0x3be57553	0.0070025115
30	0xbd8613d8	-0.06546754
31	0x3cf1758c	0.029474996
32	0x3d77bd55	0.060483295
33	0xbdba67e0	-0.09101844
34	0x3d62443b	0.05524085
35	0xbc49a253	-0.0123067675
36	0xbd1c6e82	-0.038191326
37	0xbdbfe129	-0.09369118
38	0x3c481b04	0.012213472
39	0xbdad8630	-0.0847286
40	0x3b5c090b	0.0033574726
41	0x3e0631d3	0.13104944
42	0x3d11c122	0.035584576
43	0xbd58dde1	-0.052945975
44	0xbd12e9a4	-0.03586735
45	0x3d47c7ed	0.04877465
46	0xbc682511	-0.014168994
47	0x3d52f8c7	0.051506784
48	0x3d5f22d2	0.054476567
49	0x3b5f215b	0.003404698
50	0x3d30a143	0.04312254
51	0xbdd1b664	-0.102398664
52	0xbdb44bca	-0.08803518
53	0xbd207f98	-0.039184183
54	0x3a262475	0.000633783
55	0x3c072cba	0.00825041
56	0xbd1e2d27	-0.03861728
57	0xbd17b6c8	-0.03703955
58	0xbd348dde	-0.044080608
59	0xbdaf321b	-0.08554479
60	0xbd151002	-0.03639222
61	0xbd49c7c4	-0.049262777
62	0x3bb8ff59	0.005645674
63	0x3db1a2a6	0.08673601
64	0x3b356013	0.0027675673
65	0xbcd3dfd8	-0.025863573
66	0x3bc0b684	0.0058811326
67	0xbd696dd1	-0.056989495
68	0x3d5c74ef	0.053822454
69	0xbd02f5bb	-0.031972628
70	0x3d87606f	0.0661019
71	0xbd523a8d	-0.05132537
72	0x3c802a53	0.015645182
73	0xbd9e8f47	-0.07742172
74	0x3d3cbecf	0.046080407
75	0x3d99ae31	0.075039275
76	0xbe564f0b	-0.2092859
77	0x3ca888da	0.020573068
78	0x3dcafb61	0.09911228
79	0x3d2658a9	0.040611897
80	0x3c247e87	0.010039932
81	0xbccd8bd2	-0.025091086
82	0x3d419791	0.047263686
83	0x3d39c2b6	0.045351706
84	0x3dc97878	0.09837431
85	0x3de09aa1	0.10966993
86	0x3a337859	0.00068462413
87	0x3d76f156	0.06028875
88	0x3dacdcab	0.084405266
89	0xbdd2586f	-0.102707736
90	0xbdaf28b9	-0.08552689
91	0x3d980df9	0.0742454
92	0x3b04c839	0.0020260944
93	0xbca62372	-0.020280574
94	0x3d8488bd	0.06471393
95	0xbca76ff4	-0.020439126
96	0xbd595478	-0.05305907
97	0xbace7cf4	-0.0015753792
98	0xbd7bb632	-0.061453052
99	0x3dba7939	0.09105153
100	0xba8cbdb8	-0.0010737693
101	0xbda425ea	-0.08015044
102	0x3d5b3c2e	0.05352419
103	0xbc8f6fc8	-0.017509356
104	0xbd93208b	-0.071839415
105	0xbda44554	-0.08021036
106	0x3d729a00	0.059228897
107	0xbbea1c1e	-0.007144465
108	0xbd57f993	-0.052728247
109	0x3d31a0f2	0.04336638
110	0x3c6de022	0.014518769
111	0x3dc41b6b	0.09575542
112	0xbcc7ce40	-0.02439034
113	0x3d079530	0.03310126
114	0xb9586a32	-0.00020638926
115	0x3dc0d16d	0.09414945
116	0x3c99fbe7	0.018796874
117	0xbd9a410a	-0.075319365
118	0xbb22ea2d	-0.0024858818
119	0x3cc8939e	0.024484452
120	0xbdc8f7ba	-0.09812875
121	0x3d169efc	0.036772713
122	0xbd9326e4	-0.07185152
123	0xbca45d19	-0.020063924
124	0x3c54e116	0.012993118
125	0x3ba22592	0.0049483264
126	0x3d6b6f47	0.05747917
127	0x3cce4572	0.025179598
128	0xbd207352	-0.039172478
129	0x3cf37522	0.02971894
130	0xbd8c870b	-0.06861695
131	0x3d3594cc	0.044331357
132	0xbc1588c1	-0.009126843
133	0xbd8d58ad	-0.06901679
134	0x3d6139e9	0.054986868
135	0x3af5f71b	0.001876566
136	0xbd82d385	-0.063880004
137	0xbc4d1634	-0.012517501
138	0x3d5a9848	0.053367883
139	0xbd0ef661	-0.034902934
140	0xbd8dd664	-0.069256574
141	0xbdc2e458	-0.09516209
142	0x3bb88fba	0.005632368
143	0xbdf429f1	-0.11922062
144	0x3d22f177	0.03978106
145	0x3d222e41	0.039594892
146	0xbdb45d44	-0.088068515
147	0x3d317755	0.043326695
148	0x3c508c9e	0.012728838
149	0x3da84807	0.08216863
150	0x3d37b53e	0.04485058
151	0xbce3e8e9	-0.027821021
152	0x3cb5bbb9	0.02218424
153	0xbdca04fe	-0.098642334
154	0xbdc58c09	-0.0964585
155	0xbd431f32	-0.047637172
156	0x3d69ebd3	0.057109665
157	0x3d357159	0.04429755
158	0x3d884adc	0.06654903
159	0xbcb5328e	-0.022118833
160	0xbd84fd8c	-0.06493673
161	0xbe0b81f9	-0.136238
162	0x3b830587	0.0039984616
163	0x3c1f4920	0.009722024
164	0xbc8ac52c	-0.016939722
165	0x3d33e7e4	0.04392232
166	0x3c87ebea	0.016591985
167	0xbd7fb939	-0.0624325
168	0xbdf4b738	-0.11949009
169	0xbda7bbaa	-0.08190091
170	0xbd46dce2	-0.048550494
171	0x3d4510bb	0.04811166
172	0x3d8cc57b	0.06873604
173	0x3b00f7dd	0.0019678988
174	0xbca26d8e	-0.01982763
175	0xbda5dae5	-0.080983914
176	0xbd5a13c2	-0.0532415
177	0xbd6f1037	-0.058365073
178	0xbd88843a	-0.06665845
179	0x3cd12de0	0.02553457
180	0xbc5f7a3e	-0.013639985
181	0xbbde3c98	-0.0067821257
182	0x3d4ff161	0.050767306
183	0x3d95fc9d	0.07323573
184	0xbcff8c9e	-0.031194981
185	0xbbf3d842	-0.0074415514
186	0xbd42fd45	-0.047604818
187	0xbdff6807	-0.124710135
188	0xbdac9648	-0.084271014
189	0xbdad1258	-0.084507644
190	0x3b1afee5	0.0023650464
191	0x3db85c6e	0.090020046
192	0xbdf02cae	-0.11727272
193	0x3d37e1fd	0.044893254
194	0xbd95f613	-0.073223256
195	0x3db446be	0.088025555
196	0x3dabd5a9	0.08390362
197	0x3d69ef6c	0.057113096
198	0x3d3f3705	0.04668333
199	0xbb78b7d7	-0.0037951374
200	0x3d992108	0.07477003
201	0x3cfdcb28	0.030980662
202	0x3ca122a3	0.019669836
203	0x3da05c26	0.07830076
204	0x3d780fbf	0.06056189
205	0xbdb422b1	-0.08795679
206	0x3dbe9528	0.09305793
207	0x3d8e86a8	0.069592774
208	0x3dbfada7	0.093592934
209	0x3dc2250c	0.094797224
210	0xbd5cf270	-0.053942144
211	0xbd9a7234	-0.07541314
212	0x3c92df66	0.01792879
213	0xba29af12	-0.0006472926
214	0x3d318d93	0.043347906
215	0xbcb57c7a	-0.022154082
216	0xbbe0a934	-0.006856108
217	0x3d978726	0.073988244
218	0xbda08c6b	-0.078392826
219	0x3d832c3c	0.064049214
220	0x3ca63a79	0.020291554
221	0x3ba99be5	0.005176055
222	0x3aa977e1	0.0012929403
223	0xbc9e6050	-0.019333035
224	0xbd9e35d5	-0.077251114
225	0xbd71b5db	-0.05901132
226	0xbd677812	-0.056510992
227	0xba556b2a	-0.0008141274
228	0xbcaa783d	-0.020809287
229	0x3bd923e4	0.006626593
230	0x3cbcb690	0.023036271
231	0xbdad8317	-0.08472269
232	0x3cfa13d1	0.030527027
233	0x3dac7633	0.08420982
234	0x3c38bef9	0.011276
235	0x3a874327	0.0010319696
236	0xbd05cf19	-0.032668207
237	0x3dc896e0	0.09794402
238	0xbc8bf07d	-0.017082447
239	0x3cd53740	0.026027322
240	0x3d7466ef	0.059668478
241	0xbd4b3fae	-0.049621277
242	0x3dbad5b4	0.09122792
243	0x3c3953c2	0.011311473
244	0x3da6956b	0.08133968
245	0xbc12ffe0	-0.008972138
246	0x3d956e7b	0.07296463
247	0xbdadd7b5	-0.084884085
248	0x3d49abb4	0.049236014
249	0xbdd95dbb	-0.10613581
250	0x3d86e5af	0.065867774
251	0xbd0b2e67	-0.0339798
252	0xbd176a1b	-0.036966424
253	0x3d325b0d	0.043543864
254	0x3cd9becb	0.026580235
255	0xbc890911	-0.016727956

linear2.bias f4 [512]
0	0x3dab775f	0.083723776
1	0xbd79cafa	-0.06098459
2	0x3d95c1e3	0.073123716
3	0xbd44cc8b	-0.04804663
4	0xbbd00cdb	-0.0063491887
5	0xbd9226bf	-0.071362965
6	0xbd77a561	-0.060460452
7	0x3c8c76c0	0.017146468
8	0x3d7b0796	0.06128653
9	0x3db50e3e	0.08840607
10	0xbd79e72d	-0.061011482
11	0xbd9c6535	-0.07636491
12	0x3d5b8351	0.05359203
13	0xbd049794	-0.03237112
14	0xbd1b9354	-0.0379823
15	0xbcf78c93	-0.030218398
16	0x3ce1473d	0.02749979
17	0xbd922b5c	-0.071371764
18	0xbdc28c5e	-0.09499429
19	0xbcf7dac1	-0.030255677
20	0x3d854815	0.06507889
21	0x3c0e354a	0.008679697
22	0xbdb84af0	-0.08998668
23	0x3d5bb216	0.053636633
24	0xbbc5a2e9	-0.0060313833
25	0x3ca7b29b	0.020470908
26	0x3d3ddd1d	0.04635345
27	0xbc9f8b44	-0.019475587
28	0xbd1f6303	-0.038912784
29	0xbd416028	-0.047210842
30	0x3c56cc67	0.013110257
31	0x3d996877	0.07490628
32	0x3d791994	0.06081541
33	0x3ca7bfde	0.020477232
34	0xbd872e11	-0.06600583
35	0x3d9bbada	0.076039985
36	0x3d2b06d4	0.04175456
37	0xbd095a01	-0.0335331
38	0xbd901c74	-0.07036677
39	0x3ce62dc1	0.028097989
40	0x3bd774b1	0.00657519
41	0x3c9bd939	0.019024478
42	0xbd749dfa	-0.05972097
43	0xbd0dc497	-0.03461131
44	0x3c8aeb3b	0.01695787
45	0xbd9c9d4f	-0.07647192
46	0xbd1baaee	-0.038004808
47	0x3d8780e1	0.066163786
48	0x3d9016e7	0.07035618
49	0x3d7c0f20	0.06153786
50	0x3cc41572	0.023936007
51	0xbd05503d	-0.032547224
52	0xbd86bdec	-0.065791935
53	0x3d72c084	0.05926563
54	0xbd5fc4f5	-0.054631192
55	0xbcbd019c	-0.023072056
56	0x3bbfc8b9	0.0058527854
57	0xbcd4912d	-0.025948131
58	0x3d7c2c40	0.061565638
59	0x3c94bcb4	0.018156387
60	0xbd8fa3f8	-0.070136964
61	0x3dd839de	0.10557912
62	0x3c9dbaa0	0.019254029
63	0x3b91989c	0.0044432413
64	0xbd8a224f	-0.06744825
65	0xbc6a52cc	-0.014301967
66	0x3d574476	0.052555524
67	0xbd322853	-0.043495487
68	0xbcde26d2	-0.02711812
69	0xbd94e8f9	-0.072709985
70	0xbc42c3f8	-0.011887543
71	0x3d4ec0b0	0.05047673
72	0x3bdeea5a	0.006802839
73	0xbcf54034	-0.029937841
74	0x3dae7bf9	0.0851974
75	0xbd78d436	-0.060749255
76	0xbc16c929	-0.009203234
77	0xbcca8bbb	-0.024724832
78	0x3d907322	0.0705321
79	0xbd69b85e	-0.057060592
80	0xbcbcc219	-0.023041772
81	0x3d442f84	0.047896877
82	0xbcafd039	-0.021461593
83	0x3c3a0fd5	0.011356314
84	0x3c92163e	0.017832872
85	0x3d354211	0.04425246
86	0x3d3c5bee	0.04598611
87	0xbc5a3db2	-0.013320373
88	0xbd3d439c	-0.046207055
89	0xbd1a8b3d	-0.037730444
90	0x3cf3b475	0.029749135
91	0xbd404ef8	-0.04695031
92	0xbd8e155b	-0.06937667
93	0xbd9c70c5	-0.076386966
94	0xba8b50ca	-0.0010628935
95	0x3d568d65	0.052380938
96	0xbcf0b8f0	-0.02938506
97	0x3d36faee	0.0446729
98	0xbda6b781	-0.08140469
99	0x3c7cd4c1	0.015431584
100	0x3de3b904	0.11119273
101	0x3daacbed	0.08339677
102	0xbc9dd09a	-0.019264508
103	0x3d40a549	0.04703263
104	0xbab1dc7a	-0.0013569735
105	0xbc3e9518	-0.011632226
106	0x3d8fb5d2	0.07017101
107	0xbd79bda4	-0.06097187
108	0x3dd469d4	0.103717476
109	0xbd9826f0	-0.07429302
110	0x3de0fddf	0.10985922
111	0x3cf4cee1	0.029883804
112	0x3d2f562b	0.042806786
113	0xbdea26ea	-0.114332035
114	0xbc9a6c3b	-0.018850436
115	0x3d7690e3	0.06019677
116	0xbc6586f1	-0.014009223
117	0xbd4989cd	-0.049203683
118	0x3c290637	0.010316423
119	0xbd03ff26	-0.03222575
120	0x3cf2b48d	0.029627109
121	0xbd0d55f8	-0.034505814
122	0x3daf8db9	0.08571953
123	0x3cae94d7	0.021311207
124	0x3c07194b	0.008245776
125	0xbd36c4e3	-0.04462136
126	0x3d239818	0.03993997
127	0xbcef4c1f	-0.029211102
128	0xbd2295c8	-0.039693624
129	0x3c3577e7	0.01107595
130	0xbd31f2f0	-0.043444574
131	0x3c9157ae	0.017742004
132	0x3d62f35c	0.055407867
133	0xbd7abe81	-0.061216835
134	0xbdaf4743	-0.08558514
135	0x3d7f8a08	0.062387496
136	0xbd1a1397	-0.03761634
137	0xbc0f7dbe	-0.008758007
138	0xbd857c88	-0.06517893
139	0x3d4ba679	0.049719308
140	0xbd15955e	-0.0365194
141	0xbc575e55	-0.013145049
142	0xbd8917b0	-0.06693971
143	0x3c5f8514	0.013642568
144	0xbc76d614	-0.015065689
145	0xbd5385cc	-0.05164127
146	0x3dbbfe00	0.09179306
147	0x3d00ffb1	0.031493846
148	0x3c518f06	0.012790447
149	0x3d21886e	0.03943675
150	0x3db8e828	0.09028655
151	0x3ce87514	0.02837614
152	0x3d81ca07	0.06337362
153	0xbcc7c95c	-0.024388008
154	0x3d86a032	0.065735236
155	0xbdc19a73	-0.09453287
156	0x3d8b5d1d	0.06804869
157	0x3dd1f2d3	0.10251393
158	0xbbfffe45	-0.0078122937
159	0x3d06c455	0.03290208
160	0x3dd38701	0.10328484
161	0x3d3ef4f8	0.04662034
162	0x3d8bc1ad	0.0682405
163	0x3db60b8f	0.088889234
164	0x3ca6b2f1	0.020348998
165	0x3da463ec	0.08026871
166	0x3cb2bd23	0.021818703
167	0xbd302f20	-0.043013692
168	0xbc3ecb98	-0.01164522
169	0xbc391d8e	-0.01129855
170	0xbd529684	-0.051413074
171	0xbc076124	-0.008262906
172	0x3c2ebc97	0.0106650805
173	0xbdc4ab4c	-0.09602985
174	0x3d8f3d72	0.06994142
175	0x3ca4c240	0.020112157
176	0x3cc3af9f	0.023887454
177	0x3d36d9d2	0.044641323
178	0xbc9a0566	-0.018801402
179	0xbcbe8a59	-0.023259329
180	0xbd976909	-0.07393081
181	0xbd76b5af	-0.06023186
182	0xbdb6b263	-0.08920743
183	0xbca68b41	-0.020330073
184	0xbd34ea48	-0.04416874
185	0x3dc6f484	0.097146064
186	0x3ccd1532	0.02503452
187	0x3cccd965	0.025006006
188	0x3d2c5a69	0.04207841
189	0x3cf6274f	0.03004804
190	0xbd21f131	-0.03953666
191	0x3d835d7f	0.06414317
192	0xbccd7fa5	-0.02508528
193	0xbcfaa65a	-0.0305969
194	0xbd9fef00	-0.078092575
195	0xbbbd852d	-0.005783698
196	0x3d0b4895	0.034004766
197	0xbd342d0e	-0.04398828
198	0x3dbb67d8	0.09150666
199	0xbc08e493	-0.008355278
200	0x3d954f14	0.072904736
201	0xbd577d89	-0.052609954
202	0xbdb05549	-0.08610017
203	0x3d90a965	0.070635594
204	0xbd815593	-0.0631515
205	0xbd18d5cd	-0.03731327
206	0x3bf4a177	0.007465537
207	0xbcf49c95	-0.02985982
208	0x3d4cdc21	0.05001462
209	0xbdac4569	-0.084116764
210	0x3d9f4476	0.0777673
211	0x3ba47224	0.0050184894
212	0xbd2656ed	-0.040610243
213	0xbd099405	-0.033588428
214	0xbd4cdc47	-0.05001476
215	0xbdad8516	-0.0847265
216	0xbdb2024b	-0.086918436
217	0x3bde02cc	0.0067752358
218	0xbd3da159	-0.04629645
219	0xbc4233f9	-0.011853212
220	0xbcb63d12	-0.022245917
221	0xbd2621b7	-0.040559497
222	0xbb33f8b7	-0.0027461478
223	0xbd6b8c40	-0.0575068
224	0x3dc892b2	0.09793605
225	0xbd5a3cd3	-0.053280663
226	0xbd2c7180	-0.04210043
227	0x3d5c0e74	0.05372472
228	0x3af54541	0.0018712656
229	0x3d9309ac	0.07179579
230	0xbd11e58e	-0.03561931
231	0x3cea7051	0.02861801
232	0x3d86b3d5	0.06577269
233	0x3d3be995	0.045877058
234	0xbc99dff8	-0.018783554
235	0x3ddac009	0.10681159
236	0xbbe4be06	-0.0069806604
237	0x3c7e1b7c	0.0155094825
238	0x3d83d174	0.064364344
239	0xbd8529c1	-0.065021046
240	0x3d93cec8	0.07217175
241	0xbd6a8011	-0.05725104
242	0x3aa473ad	0.0012546681
243	0xbd51c09e	-0.051209085
244	0x3da4173e	0.080122456
245	0xbd0e2de2	-0.034711726
246	0xbcee0f20	-0.029059947
247	0xbd22d019	-0.03974924
248	0x3d9ab3db	0.07553836
249	0x3d2ff555	0.042958576
250	0x3dad279f	0.08454823
251	0xbd7b929a	-0.061419107
252	0xbd8b3913	-0.067979954
253	0xbcc707d4	-0.024295725
254	0x3d0c3555	0.03423055
255	0xbd6505e6	-0.05591383

output.weight f4 [1, 512]
0	0x3d88dff4	0.06683341
1	0xbd97978d	-0.07401953
2	0xbd93277e	-0.07185267
3	0x3d30669f	0.043066617
4	0x3e282842	0.16421607
5	0x3da5c548	0.08094269
6	0x3d9ae04a	0.07562311
7	0xbddac852	-0.10682739
8	0xbdc43b2a	-0.09581597
9	0x3be14548	0.006874714
10	0xbd682090	-0.05667168
11	0xbd7b8cb6	-0.06141349
12	0x3d93871f	0.07203507
13	0x3ca1432f	0.019685356
14	0xbca30ff5	-0.01990507
15	0xbc36b82e	-0.01115231
16	0xbd5eeda8	-0.054425865
17	0xbda5ebcb	-0.081016146
18	0xbdaee8d4	-0.08540502
19	0xbc9d6197	-0.019211574
20	0xbe13f5c8	-0.14449227
21	0xbddac782	-0.10682584
22	0xbd1c0b7b	-0.038096886
23	0xbda84b22	-0.082174554
24	0xbdcb64f8	-0.09931368
25	0xbdca206d	-0.09869466
26	0xbdfa0c50	-0.1220938
27	0xbe00ca2a	-0.1257712
28	0x3db2bb5b	0.087271415
29	0x3dd8ab40	0.10579538
30	0x3d80bcfc	0.06286046
31	0xbda91052	-0.08255066
32	0xbd135c0a	-0.035976447
33	0xbda87c09	-0.08226783
34	0x3d9b01ff	0.0756874
35	0x3cfaca1e	0.030613955
36	0xbd975c7e	-0.07390688
37	0x3db097ab	0.08622678
38	0x3e13ea02	0.14444736
39	0x3d610c8a	0.0549436
40	0xbd98ba2b	-0.07457384
41	0xbbe94fb7	-0.0071200985
42	0xbdc622d8	-0.09674615
43	0xbddeff56	-0.10888545
44	0x3d3d0f7f	0.046157356
45	0x3d7b98ff	0.061425205
46	0x3dec653c	0.115427464
47	0xbdae6b51	-0.08516563
48	0xbdbf18f3	-0.093309306
49	0x3d482c0e	0.04887014
50	0xbe081a3d	-0.13291259
51	0xbd8f9143	-0.07010128
52	0x3cf4bb84	0.02987457
53	0xbd881cdb	-0.06646129
54	0x3da76181	0.08172894
55	0x3b9301e4	0.0044863094
56	0x3dc30903	0.09523203
57	0x3dbef8be	0.093247876
58	0x3cbacb4f	0.022802023
59	0xbdd2b0f4	-0.102876574
60	0x3cef131c	0.029183917
61	0x3d8e596c	0.069506496
62	0xbe090242	-0.13379768
63	0x3d5c5022	0.053787358
64	0xbdde633a	-0.1085877
65	0xbddcdddf	-0.10784506
66	0xbd6d9680	-0.058004856
67	0x3dd76ddb	0.10519
68	0x3d044ef9	0.032301877
69	0xbe022bbe	-0.12711999
70	0xbd31f49e	-0.043446176
71	0x3d6ee1c9	0.058320794
72	0xbd396984	-0.045266643
73	0x3dbdfa0c	0.09276208
74	0x3e169e13	0.14708738
75	0xbdd331c0	-0.103122234
76	0xbccd427d	-0.025056118
77	0xbdb8db78	-0.09026235
78	0xbdf31a39	-0.11870236
79	0xbe1a31c9	-0.15058054
80	0xbddfc1de	-0.10925649
81	0xbd22ad02	-0.039715774
82	0x3e132ed4	0.14373332
83	0x3d674361	0.056460742
84	0x3daf48c0	0.08558798
85	0xbde607f9	-0.112319894
86	0xbd165cc7	-0.036709573
87	0x3dd47b07	0.10375028
88	0x3e0d30ae	0.13788101
89	0x3dac5d35	0.08416215
90	0xbda4fbf6	-0.0805587
91	0xbd6373e2	-0.055530436
92	0xbdbdd9c1	-0.09270049
93	0xbd620748	-0.055182725
94	0x3d2e4593	0.04254682
95	0xbd6f4446	-0.05841472
96	0x3d14b422	0.0363046
97	0xbe0ae768	-0.13564837
98	0xbcbf2c07	-0.023336424
99	0xbca12909	-0.019672887
100	0x3ddc82ea	0.107671574
101	0xbdfb874f	-0.122816674
102	0xbd6ba370	-0.057528913
103	0x3d409e43	0.04702593
104	0xbd6a65dc	-0.057226047
105	0x3d03db5b	0.032191616
106	0x3d0ed9e4	0.034875765
107	0xbdafd247	-0.08585029
108	0x3e3bb3b9	0.18330278
109	0xbd8985d2	-0.06714977
110	0x3dbd72a7	0.09250384
111	0x3c1856db	0.009298052
112	0x3d3c2fe2	0.045944102
113	0x3e750a9e	0.23929831
114	0x3df47f4b	0.11938342
115	0x3d9b2fbe	0.075774655
116	0xbd4f4bcc	-0.050609395
117	0xbda2d3aa	-0.07950528
118	0x3dd1e9ff	0.10249709
119	0xbda9b98b	-0.08287343
120	0xbd0f049c	-0.034916505
121	0x3dc0f64f	0.0942198
122	0x3dcb0144	0.09912351
123	0x3cf96f1d	0.03044849
124	0xbe20891a	-0.156773
125	0xbd5350f2	-0.051590867
126	0xbceee2c6	-0.029160868
127	0x3e2bb93a	0.16769877
128	0xbdcbe1e8	-0.099551976
129	0xbd40f6dc	-0.047110423
130	0xbd867aa7	-0.06566363
131	0x3dc9a31e	0.09845565
132	0xbcd411c3	-0.025887376
133	0x3d62eb3a	0.05540011
134	0xbcf495be	-0.029856559
135	0xbddcf344	-0.10788587
136	0x3e402f02	0.18767932
137	0xbdf2420b	-0.11829003
138	0xbd942ac7	-0.07234722
139	0xbd020399	-0.031741712
140	0xbd9421ca	-0.07233007
141	0x3e054e29	0.13018097
142	0x3d709ce4	0.058743373
143	0xbd8a3fe8	-0.067504704
144	0x3e30cdc6	0.17265996
145	0x3db20748	0.08692795
146	0x3cf4c314	0.029878177
147	0x3d2dc195	0.042420942
148	0xbda52544	-0.080637485
149	0xbda5dafa	-0.08098407
150	0x3d6e44c5	0.058171052
151	0x3d3ebb6e	0.046565466
152	0x3df0a1d0	0.11749613
153	0xbd254eec	-0.04035847
154	0x3d2c040b	0.041996043
155	0x3d5ce840	0.05393243
156	0xbd0ec0cb	-0.03485183
157	0x3c61ed05	0.01378942
158	0x3d5f6d7d	0.054547776
159	0xbcec8c70	-0.02887556
160	0x3d5f3d58	0.05450186
161	0xbd08106b	-0.033218782
162	0x3d44f749	0.048087392
163	0x3d253dff	0.040342327
164	0xbdbb13ae	-0.09134613
165	0xbdb65fa3	-0.0890496
166	0xbe03c9b8	-0.12869918
167	0xbd07d9b2	-0.033166595
168	0xbd18c209	-0.03729442
169	0x3e5b6720	0.21426058
170	0xbe1d69e7	-0.1537243
171	0xbdeca82f	-0.11555516
172	0xbd5e7f40	-0.054320574
173	0xbd417e42	-0.04723955
174	0xbc9a2e6d	-0.018820966
175	0x3e0b5a30	0.13608623
176	0x3d93c3e6	0.07215099
177	0xbc205bcc	-0.009787511
178	0x3cac2e7e	0.021018263
179	0x3c9ef79d	0.01940518
180	0x3dab9d75	0.08379642
181	0xbdb267d6	-0.087112114
182	0xbd02f19e	-0.031968705
183	0xbd04e099	-0.032440756
184	0xbd259672	-0.04042668
185	0x3dd83245	0.10556463
186	0xbe3f759c	-0.18697208
187	0xbd3a7d39	-0.045529578
188	0x3da494f5	0.08036224
189	0x3d10977a	0.03530071
190	0xbdd24b33	-0.10268249
191	0xbd74a4bf	-0.059727427
192	0x3dcd38d6	0.10020606
193	0x3d71396e	0.05889266
194	0x3d9ca057	0.0764777
195	0x3dc988d7	0.09840553
196	0xbde2f631	-0.110821135
197	0xbc79839b	-0.015229131
198	0x3dad152c	0.08451304
199	0x3dfaaa75	0.12239543
200	0xbda488da	-0.08033915
201	0xbda8235b	-0.082098685
202	0x3da90ab4	0.082539946
203	0x3dc9828e	0.098393545
204	0x3da7cce3	0.08193376
205	0x3d8d6173	0.069033526
206	0xbd31c532	-0.04340095
207	0x3d5113b8	0.051044196
208	0x3dcbef10	0.09957707
209	0xbdb3b8e6	-0.08775501
210	0x3d8f7bd4	0.0700604
211	0x3c81f6a8	0.015864685
212	0x3de56072	0.11200036
213	0xbdccbe77	-0.09997266
214	0x3d310e00	0.043226242
215	0x3dd2767d	0.10276506
216	0xbd7307ed	-0.05933373
217	0x3d9a60aa	0.075379685
218	0xbdf61ce0	-0.12017226
219	0x3c9eb053	0.019371187
220	0xbdc5e441	-0.096626766
221	0xbd83d039	-0.064362
222	0x3db3e759	0.087843604
223	0xbdb601df	-0.08887076
224	0x3df4c298	0.11951178
225	0xbd4ec5b2	-0.050481506
226	0xbd62c90a	-0.055367507
227	0x3cd66998	0.026173398
228	0x3d636955	0.055520374
229	0xbd9127f2	-0.07087697
230	0x3dcdc199	0.100466914
231	0xbdcac5a2	-0.09900977
232	0xbd6cc8fd	-0.057808865
233	0x3d865587	0.06559282
234	0x3d547320	0.051867604
235	0x3e03f6f5	0.12887175
236	0xbdf278a2	-0.11839415
237	0x3e08156e	0.13289425
238	0x3e15d6ad	0.14632674
239	0x3e1684b3	0.14699058
240	0x3ce69bc2	0.028150443
241	0x3c2009e4	0.009767983
242	0x3dc4adab	0.09603437
243	0xbd84b412	-0.06479658
244	0x3cfaf207	0.030632986
245	0x3cece2a0	0.028916657
246	0x3da68b03	0.08131983
247	0x3d86e238	0.065861166
248	0x3d8c4eef	0.06850993
249	0xbd1ab280	-0.037767887
250	0x3dea2e9d	0.11434672
251	0x3d76708e	0.060165934
252	0xbd902c60	-0.07039714
253	0xbd5d53ad	-0.054034878
254	0x3e0c2ee7	0.13689767
255	0xbde83413	-0.11338057
