Data/Black/params_vs_MinMax.pth (torch, 276130 bytes, 5 tensors)

linear1.weight f4 [128, 13]
0.13491446 0.28035185 0.101874694 0.022629192 -0.10349421 -0.27341342 -0.19724195 0.18306533
0.13260254 -0.2604547 0.07702689 -0.13964307 -0.025003871 -0.11521348 0.05402691 0.1751443
-0.19640729 -0.10841081 -0.008641486 0.110287555 0.0682575 0.081665285 0.13787381 0.054563295
-0.13960634 -0.19287397 -0.13512373 -0.18618989 0.10124672 -0.049535565 0.041742947 -0.10763541
0.24682848 0.0014517001 0.20020878 -0.0789158 0.0873639 -0.16996135 0.16331385 0.07738724
-0.24454157 -0.072106935 -0.0827422 0.17713591 0.022634646 -0.12096583 0.19502223 -0.23880793
-0.02824173 -0.049661297 0.03245687 -0.09658444 -0.015063966 -0.0975222 0.25715673 0.1373923
0.0041041956 0.011656243 -0.1563249 0.12939255 0.04952117 0.062281366 0.2592505 -0.17290811
-0.1482063 0.19508061 -0.038399715 0.1158392 -0.061723363 -0.15451623 -0.29195306 -0.26183608
0.049400423 0.11098951 0.17886865 -0.07666453 0.21858302 -0.0379991 0.040315304 -0.11072022
-0.21398018 -0.041448906 0.19079986 0.17157094 -0.258627 -0.1494323 0.12349254 0.23094058
0.1095293 0.14270233 0.21309857 -0.26827872 0.1839855 0.16564113 -0.09422552 -0.21071765
0.054985184 0.0886041 -0.16697834 -0.21688245 -0.12872 0.18343776 0.004051521 0.08813967
-0.0056236293 0.027358139 -0.036481213 0.08757195 -0.025885828 0.030437361 0.0029098191 0.2746683
0.019154252 -0.24801885 0.12428763 0.14887886 -0.20191152 0.22882377 -0.2553361 0.15629
0.016317446 -0.2858144 0.11945299 0.0018600324 0.049609087 -0.1143677 -0.011431058 0.01044999
-0.23334128 -0.102091886 0.19572908 0.08065881 0.13763812 -0.08336582 -0.08364781 0.015856681
-0.26583487 -0.10322697 -0.1903275 0.072083004 0.14159617 -0.10775419 -0.049838345 0.06917342
0.20875338 -0.10314703 -0.22364111 0.23540127 0.114197925 0.14426932 -0.07420511 0.18593033
0.10555086 -0.19963501 0.05766916 0.13401511 -0.02051984 -0.26958683 -0.048927244 -0.24604744
-0.2093342 0.14595802 -0.11574419 0.27795762 -0.13739832 -0.1627096 0.2571732 0.15293674
0.09647539 -0.19013403 -0.17853937 -0.09780411 -0.16194409 0.040508635 0.162618 0.19381839
0.09869001 -0.14403556 0.022290789 -0.08899072 -0.25230235 -0.054526333 0.03506069 0.17789541
0.13124025 -0.11723684 0.15970099 -0.13635047 -0.18638179 -0.29692945 -0.087254696 0.10177592
0.083188124 0.052026305 -0.0273362 -0.102783054 0.25916153 -0.102154076 -0.25191966 -0.08450809
-0.14708918 0.04996079 -0.1294076 -0.22938932 0.265587 -0.05297798 -0.14821838 0.21196327
-0.114521965 -0.20530309 0.14575611 0.0420997 0.23995756 0.15744744 -0.08277341 0.06756257
-0.044695415 -0.23595186 0.07741536 0.25709224 0.12717687 -0.106114164 0.115207046 -0.06623079
-0.25364444 -0.13763061 -0.22861479 0.2736584 0.07351793 0.20550194 0.1608473 0.1889484
-0.08519048 -0.12415845 -0.06953462 0.24682069 0.24456996 0.15259525 -0.080062956 -0.26278105
0.08464513 0.21922655 0.0033769319 -0.019950844 0.13392629 0.02298247 0.11970011 0.2601737
0.15840447 0.15764403 0.0025150485 0.20669225 -0.04249492 0.014472843 0.094246455 0.19360556
00000000: 0427 0a3e 478a 8f3e aea3 d03d db60 b93c
00000010: c6f4 d3bd d8fc 8bbe cbf9 49be 7a75 3b3e
00000020: f6c8 073e 525a 85be 46c0 9d3d 98fe 0ebe
00000030: ebd4 ccbc 0cf5 ebbd 524b 5d3d 0759 333e
00000040: fe1e 49be 7d06 debd 0595 0dbc 71de e13d
00000050: 97ca 8b3d 2140 a73d cb2e 0d3e c37d 5f3d
00000060: f7f4 0ebe c180 45be e05d 0abe 90a8 3ebe
00000070: 715a cf3d cee5 4abd a7fa 2a3d f46f dcbd
00000080: 9bc0 7c3e f946 be3a 8803 4d3e 9b9e a1bd
00000090: d8eb b23d 590a 2ebe bf3b 273e 347d 9e3d
000000a0: 1b69 7abe cdac 93bd be74 a9bd 1e63 353e
000000b0: 4b6c b93c efbc f7bd e8b3 473e 118a 74be
000000c0: 335b e7bc a569 4bbd 7ff1 043d 10ce c5bd
000000d0: dace 76bc b8b9 c7bd 0caa 833e 91b0 0c3e
000000e0: 7d7c 863b d4f9 3e3c a213 20be 7b7f 043e
000000f0: b6d6 4a3d bf1a 7f3d 7bbc 843e d30e 31be
00000100: 64c3 17be 36c3 473e 0549 1dbd 1a3d ed3d
00000110: a3d1 7cbd 8139 1ebe df7a 95be 610f 86be
00000120: 1958 4a3d 784e e33d 5829 373e 4b02 9dbd
00000130: 3ad4 5f3e f2a4 1bbd a921 253d 48c1 e2bd
00000140: 9f1d 5bbe 54c6 29bd 0a61 433e 4bb0 2f3e
00000150: c26a 84be c804 19be a8e9 fc3d b07b 6c3e
00000160: e650 e03d 8f20 123e 8336 5a3e d45b 89be
00000170: b266 3c3e d49d 293e 4ff9 c0bd 5ec6 57be
00000180: 2538 613d 1176 b53d 5ffc 2abe 6f16 5ebe
00000190: 2dcf 03be 1cd7 3b3e 9fc2 843b 9282 b43d
000001a0: 6c46 b8bb 2d1e e03c 536d 15bd ec58 b33d
000001b0: 840e d4bc c657 f93c aab2 3e3b 53a1 8c3e
000001c0: 61e9 9c3c a7f8 7dbe 838a fe3d b373 183e
000001d0: e5c1 4ebe c750 6a3e 6abb 82be 7c0a 203e
000001e0: 2aac 853c 4456 92be c5a3 f43d 55cc f33a
000001f0: e632 4b3d 9d39 eabd 5549 3bbc 6f36 2b3c
00000200: 04f1 6ebe 8d15 d1bd 346d 483e 7230 a53d
00000210: 02f1 0c3e b3bb aabd 8b4f abbd dfe5 813c
00000220: 821b 88be a968 d3bd 36e5 42be 41a0 933d
00000230: 96fe 103e 3bae dcbd 4b23 4cbd cbaa 8d3d
00000240: 72c3 553e c03e d3bd 2d02 65be 080d 713e
00000250: 9ae0 e93d 56bb 133e d9f8 97bd 8564 3e3e
00000260: 0d2b d83d 1f6d 4cbe 7f36 6c3d 423b 093e
00000270: 3919 a8bc 4907 8abe ef67 48bd dcf3 7bbe
00000280: b45b 56be 0576 153e 4a0b edbd 7650 8e3e
00000290: 25b2 0cbe 589d 26be 35ac 833e 739b 1c3e
000002a0: e494 c53d 7fb2 42be 06d3 36be 854d c8bd
000002b0: acd4 25be 62ec 253d 5585 263e 5478 463e
000002c0: fd1d ca3d 0f7e 13be 2c9b b63c c440 b6bd
000002d0: c62d 81be 0157 5fbd cc9b 0f3d 372a 363e
000002e0: d863 063e de19 f0bd a888 233e 759f 0bbe
000002f0: deda 3ebe 2307 98be 97b2 b2bd e56f d03d
00000300: 895e aa3d 8919 553d 2bf0 dfbc ec7f d2bd
00000310: d2b0 843e 2836 d1bd 9dfb 80be 9412 adbd
00000320: 8c9e 16be afa3 4c3d 6d83 04be 09e5 6abe
00000330: 05fb 873e 70ff 58bd 8fc6 17be e60c 593e
00000340: 7e8a eabd f93a 52be 1741 153e bc70 2c3d
00000350: 6fb7 753e e739 213e 1b85 a9bd 3f5e 8a3d
00000360: 8a12 37bd 5d9d 71be f28b 9e3d 98a1 833e
00000370: a73a 023e 6252 d9bd acf1 eb3d 02a4 87bd
00000380: afdd 81be 0aef 0cbe ff19 6abe f41c 8c3e
00000390: 9290 963d 1a6f 523e 28b5 243e b07b 413e
000003a0: 5978 aebd c946 febd 2b68 8ebd 90be 7c3e
000003b0: 8c70 7a3e ee41 1c3e 0cf8 a3bd 3d8b 86be
000003c0: 6d5a ad3d ed7c 603e 844f 5d3b f46f a3bc
000003d0: f923 093e bc45 bc3c 5525 f53d 7d35 853e
000003e0: c834 223e 706d 213e 83d3 243b 22a7 533e
000003f0: 270f 2ebd 811f 6d3c 4904 c13d 8940 463e

linear1.bias f4 [128]
0.001342203 -0.23179625 0.2541087 -0.13242579 -0.21490707 -0.17005381 -0.26380795 0.230723
-0.022879444 0.009471752 0.3019891 -0.20530233 0.11429682 0.029436175 0.002805159 -0.24985552
-0.08738162 0.16616938 -0.058156427 0.14007226 0.08948519 -0.026810186 -0.24701151 0.056574397
-0.1273827 0.14883257 0.17906874 0.15857957 -0.21134406 0.20895952 -0.20394148 0.043881096
0.14308584 -0.08598837 -0.110410705 -0.21738274 0.018213123 -0.077928744 -0.16968021 -0.2325453
0.24745198 0.19035956 -0.15365106 0.015305569 0.11579956 -0.12209689 -0.15947016 0.27579704
-0.0795287 -0.20010668 -0.09072536 0.11618932 0.0756327 -0.12161499 -0.19718798 0.25943056
-0.07792389 0.032572296 0.021463744 -0.11293428 -0.17962673 -0.06988283 -0.016820988 -0.13584894
0.11453044 -0.22833596 -0.05017007 -0.23278011 -0.025667408 -0.22044763 -0.25658956 -0.06989632
0.23363203 -0.00040451591 0.052939683 0.1707101 0.28351012 0.10016164 -0.18613279 0.051495846
0.22629756 0.29918867 0.18248196 -0.08500209 0.21665579 -0.22901095 0.00019429286 0.20361015
0.24045613 -0.15596195 -0.18484655 0.19868785 -0.18871838 0.20552507 -0.046659663 -0.17165817
-0.13269043 0.26919046 -0.17106651 0.1405334 -0.27245107 -0.2597863 -0.10110189 0.004349874
-0.27124175 0.23803633 -0.16023117 0.06262183 -0.036602784 -0.09386648 0.1047954 -0.042461537
0.028498612 -0.015110462 0.1434932 0.12673435 0.040062506 0.06512054 -0.088082455 0.10725954
0.23394875 -0.17763095 0.0835815 0.2384582 0.06261857 -0.22259752 0.21001314 0.24094947
00000000: dcec af3a ff5b 6dbe 891a 823e a09a 07be
00000010: 9910 5cbe 9622 2ebe d611 87be a642 6c3e
00000020: ac6d bbbc 682f 1b3c 519e 9a3e c63a 52be
00000030: 7314 ea3d 2224 f13c c2d6 373b 20da 7fbe
00000040: 23f5 b2bd 4e28 2a3e 6f35 6ebd 1a6f 0f3e
00000050: 0344 b73d 09a1 dbbc 96f0 7cbe 8eba 673d
00000060: 9c70 02be 9167 183e cc5d 373e af62 223e
00000070: 946a 58be 7cf9 553e 09d6 50be aabc 333d
00000080: 1885 123e ac1a b0bd 021f e2bd 9599 5ebe
00000090: b033 953c 1b99 9fbd a6c0 2dbe 5b20 6ebe
000000a0: 0d64 7d3e 9eed 423e b456 1dbe 36c4 7a3c
000000b0: 5228 ed3d ef0d fabd 254c 23be 4535 8d3e
000000c0: f1df a2bd c4e8 4cbe 38ce b9bd abf4 ed3d
000000d0: 51e5 9a3d 4811 f9bd a5eb 49be 15d4 843e
000000e0: 8f96 9fbd 876a 053d bcd4 af3c 164a e7bd
000000f0: 12f0 37be bb1e 8fbd 2bcc 89bc fc1b 0bbe
00000100: ef8e ea3d e7d0 69be 227f 4dbd e95d 6ebe
00000110: 7544 d2bc 06bd 61be b55f 83be cd25 8fbd
00000120: 3c3d 6f3e 3515 d4b9 48d7 583d a1ce 2e3e
00000130: 3d28 913e 8c21 cd3d 9899 3ebe 4fed 523d
00000140: 8cba 673e 422f 993e 8ddc 3a3e 9315 aebd
00000150: 04db 5d3e d981 6abe 18bb 4b39 2e7f 503e
00000160: 223a 763e 7db4 1fbe 6a48 3dbe d474 4b3e
00000170: 643f 41be 2a75 523e 341e 3fbd 29c7 2fbe
00000180: 00e0 07be 55d3 893e 0f2c 2fbe fde7 0f3e
00000190: b57e 8bbe b602 85be 820e cfbd 6389 8e3b
000001a0: 33e0 8abe ccbf 733e a413 24be e03f 803d
000001b0: cdec 15bd 123d c0bd f89e d63d 26ec 2dbd
000001c0: ec75 e93c df91 77bc e2ef 123e a6c6 013e
000001d0: 9518 243d eb5d 853d 9364 b4bd e4aa db3d
000001e0: 4390 6f3e e3e4 35be c72c ab3d 632e 743e
000001f0: 2a3e 803d 9bf0 63be af0d 573e 75bb 763e

linear2.weight f4 [512, 128]
-0.052493114 0.02051373 0.03333291 -0.048766363 0.018222151 -0.017168783 -0.005914524 -0.015556409
-0.01242322 -0.011434522 -0.00014377147 -0.03745197 -0.023499362 -0.05293871 -0.012882345 0.066198565
-0.010807058 -0.057654794 -0.0051864972 0.0061049806 0.007997431 0.03333688 0.037509143 0.02480151
-0.085728005 -0.06336166 -0.03126186 -0.07302482 -0.068325296 0.087384455 -0.012171058 0.023956072
-0.03973783 0.09309088 0.018972093 -0.07226963 -0.0027737066 0.014317339 -0.055067267 -0.07738388
-0.056761708 -0.015228449 0.030248458 0.053867288 0.049214073 -0.075159535 -0.036919065 -0.03437133
0.06377353 0.014295825 -0.08638117 -0.014264477 -0.054031037 0.08023648 0.04631425 0.034360275
0.019531086 -0.010199315 -0.07015915 0.0569637 -0.08792149 -0.07830759 0.08052347 0.059813257
0.053088784 -0.0631829 -0.0077646077 -0.069450654 0.02001233 -0.03928971 0.03213365 -0.0921769
0.023956573 0.07908595 0.070155874 0.009434391 -0.018123226 0.047391936 -0.048817717 0.06906753
0.06104282 -0.06619409 0.0927378 0.019789914 -0.08901293 -0.08618751 0.060409516 -0.0020581284
-0.0010391907 0.0011395988 -0.01953009 0.046049666 0.054611467 0.0073363446 -0.07480338 0.034269612
-0.02683189 -0.061728936 0.075483344 0.05923749 -0.10485725 -0.03673596 0.04960536 0.08849208
-0.06820285 0.08687202 -0.036984824 0.066597424 0.027571913 0.058864705 0.064105935 -0.045080487
0.05786519 -0.028695013 -0.07006472 0.001671821 0.07531739 0.028500594 -0.07975239 0.04263547
-0.091958255 0.05690636 -0.02838358 0.00869973 -0.051187735 0.04007813 0.122167304 0.10097025
-0.016474206 -0.017564517 0.02785813 -0.038851146 -0.07127879 0.033258576 -0.013101486 -0.0020750044
0.035945572 0.06819309 -0.062767886 0.065378435 0.02462226 -0.028880967 0.042296052 0.0058905385
0.05587805 -0.05763809 0.009623239 0.08631286 0.0003375049 0.05739956 0.025906553 -0.022067077
-0.006135507 0.05169747 0.03704866 -0.08551689 -0.0003797861 0.092684835 0.03487087 0.03584395
0.0005465134 0.014946937 -0.038922474 -0.017665027 0.04905483 -0.0066939006 0.058759578 0.0652516
0.02234215 0.043257527 -0.044851836 0.0015890485 -0.011072573 -0.048204217 -0.07814924 -0.0005362418
0.03853081 -0.07871771 0.070709415 -0.018584015 0.031510647 0.04550625 -0.0011185165 0.037367813
-0.021101873 0.007084969 0.054903608 0.075759724 0.02748032 0.00977186 -0.006738809 0.031555347
0.06690466 0.013082077 0.0009816743 0.03743815 -0.019251224 0.05939401 0.05768514 -0.0033290167
0.011114707 0.05215088 -0.017152403 0.072426826 0.015922735 0.095593564 0.03609213 -0.06868077
-0.028503416 0.075913064 0.08961743 -0.04519127 -0.045874465 0.07002064 -0.066766165 -0.045660585
0.061199456 0.014817245 0.07308143 -0.077677734 -0.039445885 0.06745004 0.056595534 -0.08265342
-0.06538222 0.012339748 0.031606775 -0.023952333 -0.062495314 0.017811514 -0.06087177 -0.05388533
0.028623274 -0.00088797166 -0.038142864 0.059877437 -0.0821394 0.021302115 -0.015659645 0.034528896
-0.019697733 0.048380483 0.045159534 0.025120143 0.030179348 0.025671465 0.07545346 0.055584516
0.022403043 -0.01686352 0.027344381 0.03063345 -0.035778545 0.032601293 0.038064897 0.027424943
00000000: 0503 57bd 690c a83c 1788 083d 3dbf 47bd
00000010: 9f46 953c 8ca5 8cbc a0ce c1bb 4fe0 7ebc
00000020: c38a 4bbc dd57 3bbc 5cc1 16b9 3d67 19bd
00000030: bc81 c0bc 43d6 58bd 7910 53bc 1d93 873d
00000040: 1610 31bc 6f27 6cbd 7ef3 a9bb 4a0c c83b
00000050: a807 033c 418c 083d 30a3 193d 892c cb3c
00000060: 2a92 afbd c2c3 81bd 700c 00bd 098e 95bd
00000070: 22ee 8bbd 9ff6 b23d 1e69 47bc 863f c43c
00000080: 23c4 22bd 6ea6 be3d 5d6b 9b3c 1a02 94bd
00000090: 13c7 35bb 4693 6a3c 378e 61bd 717b 9ebd
000000a0: f77e 68bd bf80 79bc 9dcb f73c f2a3 5c3d
000000b0: b294 493d 3eed 99bd 7238 17bd f4c8 0cbd
000000c0: b29b 823d 0939 6a3c 9ce8 b0bd 8eb5 69bc
000000d0: a64f 5dbd 0653 a43d 03b4 3d3d 5cbd 0c3d
000000e0: a8ff 9f3c 071b 27bc 9aaf 8fbd c552 693d
000000f0: 2f10 b4bd bb5f a0bd 7de9 a43d bffe 743d
00000100: a073 593d 0966 81bd 406e febb 253c 8ebd
00000110: e6f0 a33c 3fee 20bd 939e 033d 3ec7 bcbd
00000120: 9340 c43c d1f7 a13d e2ad 8f3d b492 1a3c
00000130: 2977 94bc 0c1e 423d 16f5 47bd 4773 8d3d
00000140: 0908 7a3d c490 87bd 51ed bd3d 751e a23c
00000150: 694c b6bd 1483 b0bd f86f 773d aae1 06bb
00000160: 7435 88ba 975e 953a 91fd 9fbc 939e 3c3d
00000170: 46b0 5f3d b865 f03b 8432 99bd 4b5e 0c3d
00000180: 8dce dbbc 7bd7 7cbd 0397 9a3d 03a3 723d
00000190: 66bf d6bd 7278 16bd fd2e 4b3d 563b b53d
000001a0: f0ad 8bbd f5e9 b13d 667d 17bd 3b64 883d
000001b0: 7ede e13c 1e1c 713d f949 833d 51a6 38bd
000001c0: 0d04 6d3d ce11 ebbc 187e 8fbd 0121 db3a
000001d0: 0140 9a3d 147a e93c 3955 a3bd 88a2 2e3d
000001e0: 9c54 bcbd a516 693d ae84 e8bc 5089 0e3c
000001f0: 3baa 51bd f728 243d da32 fa3d 7ec9 ce3d
00000200: eaf4 86bc 76e3 8fbc bc36 e43c 6122 1fbd
00000210: 9dfa 91bd 253a 083d 9da7 56bc ccfc 07bb
00000220: aa3b 133d d2a8 8b3d 738c 80bd 21e5 853d
00000230: 9fb4 c93c c797 ecbc a03e 2d3d 6b05 c13b
00000240: 62e0 643d eb15 6cbd caaa 1d3c ccc4 b03d
00000250: 24f3 b039 cd1b 6b3d fb39 d43c 04c6 b4bc
00000260: 5d0c c9bb bac0 533d 56c0 173d 7b23 afbd
00000270: 071e c7b9 8cd1 bd3d c2d4 0e3d 1bd1 123d
00000280: e543 0f3a ffe3 743c 2c6d 1fbd 3fb6 90bc
00000290: b8ed 483d 8258 dbbb e2ad 703d a2a2 853d
000002a0: e206 b73c ce2e 313d 8fb6 37bd 9f47 d03a
000002b0: bd69 35bc c971 45bd b50c a0bd 9492 0cba
000002c0: 7cd2 1d3d c036 a1bd 19d0 903d 813d 98bc
000002d0: 4f11 013d c364 3a3d 309b 92ba fe0e 193d
000002e0: d6dd acbc 0729 e83b 9be2 603d ea27 9b3d
000002f0: 681e e13c 271a 203c 3ad1 dcbb 2e40 013d
00000300: 4f05 893d 3556 563c 86ab 803a bf58 193d
00000310: beb4 9dbc 2247 733d 4147 6c3d a22b 5abb
00000320: 761a 363c 299c 553d 3283 8cbc 8454 943d
00000330: 6570 823c 8fc6 c33d 57d5 133d 81a8 8cbd
00000340: ff7f e9bc 4f78 9b3d 5889 b73d 7b1a 39bd
00000350: dde6 3bbd fb66 8f3d b3bc 88bd 9806 3bbd
00000360: 48ac 7a3d 08c4 723c b7ab 953d 8115 9fbd
00000370: 0292 21bd 3f23 8a3d b8d0 673d 3246 a9bd
00000380: 1de7 85bd a82c 4a3c 1b76 013d af37 c4bc
00000390: 16fb 7fbd 74e9 913c ad54 79bd ddb6 5cbd
000003a0: 5b7b ea3c c5c6 68ba b13b 1cbd 0b42 753d
000003b0: b438 a8bd c681 ae3c a848 80bc 2c6e 0d3d
000003c0: 245d a1bc 9d2a 463d 34f9 383d c2c8 cd3c
000003d0: ae3a f73c f74c d23c 5887 9a3d 97ac 633d
000003e0: 9686 b73c 5d25 8abc 5301 e03c 00f3 fa3c
000003f0: 868c 12bd ef88 053d f0e9 1b3d 46aa e03c

linear2.bias f4 [512]
0.050047606 -0.017821612 -0.001628939 0.06408113 -0.021158038 0.09187616 -0.007657652 0.04691502
0.031732723 -0.035947084 0.0922368 0.019662652 0.04215023 0.1020407 -0.041971885 -0.054190535
-0.09183966 -0.08153111 -0.011249535 -0.060365167 -0.041578688 -0.046171635 0.045227747 -0.04941693
-0.05572425 0.10387476 -0.048557606 0.07378912 -0.07094515 0.05399752 -0.06637475 -0.060124952
-0.03302532 0.013637411 0.08264442 0.08161231 0.050671987 -0.05552303 0.0131512275 0.038427733
-0.054146193 0.09679062 0.076359846 0.028995233 0.011086787 0.034427345 -0.036702283 0.07248215
0.067381054 -0.07891071 -0.007585931 -0.07018333 0.06212625 -0.04501638 0.07304391 -0.06277734
0.038317937 0.07434605 -0.0499441 0.07125546 0.08485912 -0.07157124 -0.0763802 -0.03535427
-0.06453419 -0.08033571 -0.00076323334 0.06595203 -0.0030136246 0.01621364 -0.07817043 -0.023069812
-0.070740305 -0.04164646 0.093307085 0.025086498 -0.00982885 0.07247597 -0.067497574 -0.07022615
0.08750714 -0.0130000515 0.060252964 -0.043374263 0.038454022 0.07002041 0.0049252613 0.037476547
-0.036686923 0.07713235 0.023609584 -0.053167775 -0.03342183 -0.0013770811 -0.005251153 0.048455495
-0.05496987 -0.07568931 -0.023148604 -0.020850338 -0.06060837 0.04825291 -0.0735849 -0.044424444
-0.07039643 0.006177492 0.05120899 0.052283138 -0.04275661 -0.06557112 -0.0691851 -0.031081818
-0.03293505 -0.04741095 -0.024468489 0.0072477343 0.0021418454 -0.0046245595 0.009674674 -0.030887013
-0.073553845 -0.06563464 -0.028210428 -0.07770489 0.011944453 -0.01752535 0.043628834 0.06219322
-0.075327374 -0.035662234 0.02615733 0.0003904466 -0.041795686 -0.07501732 0.09620989 -0.04198498
0.011140826 0.08812748 0.039270453 -0.044316217 0.063367635 -0.032476638 0.07743005 0.005429409
0.05033276 -0.01426589 0.062365755 -0.07543918 0.07734224 0.084687606 -0.06438195 -0.0043983054
0.08696842 -0.036452208 -0.0006464569 0.0030852912 -0.038951207 -0.017299075 0.05622583 -0.06865635
0.033291623 0.076135494 -0.031912826 -0.053961527 -0.004542325 0.01604123 -0.068349145 0.034786575
0.063503906 0.07419393 0.09481696 0.058345262 -0.079987004 -0.03405088 -0.0350872 -0.0331801
-0.024380114 -0.031630788 0.094960675 0.020136585 0.038530488 0.017739639 -0.03796706 0.03180977
0.031209676 0.06066922 0.050150342 0.032620087 -0.025988525 0.054606225 0.070301235 0.045425065
0.0797896 0.010447702 0.0309436 0.009880253 -0.04120804 -0.036621805 -0.018604124 -0.06611128
0.08844306 0.0039657354 -0.016373772 -0.011707751 0.04139961 -0.02318968 -0.020301202 -0.089083955
-0.054529913 0.06129482 0.06328123 -0.02059238 0.009595745 0.05146908 0.011985171 -0.07896269
-0.055464786 -0.02107752 -0.07787086 -0.060187455 -0.010229157 -0.049690187 0.06920014 -0.07334587
-0.04689253 -0.009753869 0.038595263 0.07865624 0.08492545 -0.020290358 0.07492681 -0.07413503
-0.065160565 -0.041147746 0.059128843 -0.027043827 0.06826514 0.09104257 -0.03984961 0.019830782
-0.062030125 0.055056926 -0.037024613 0.06938918 0.047522917 0.06418288 -0.04489217 0.005792715
0.08666154 -0.026084144 0.0031566208 0.020374851 0.046229772 0.060260188 0.056231376 0.061977983
00000000: b8fe 4c3d a1fe 91bc 1f82 d5ba f83c 833d
00000010: 9f53 adbc 9129 bc3d 0aed fabb f729 403d
00000020: 2cfa 013d 403d 13bd a6e6 bc3d 9213 a13c
00000030: b8a5 2c3d b7fa d03d b6ea 2bbd e5f6 5dbd
00000040: 6f16 bcbd c8f9 a6bd f84f 38bc 7741 77bd
00000050: 6a4e 2abd 781e 3dbd bb40 393d 6869 4abd
00000060: 1c3f 64bd 4abc d43d 57e4 46bd c01e 973d
00000070: b14b 91bd 812c 5d3d 7cef 87bd 9545 76bd
00000080: 8f45 07bd 736f 5f3c 7a41 a93d 5b24 a73d
00000090: 6e8d 4f3d 1e6c 63bd 3f78 573c 6666 1d3d
000000a0: 66c8 5dbd 293a c63d 8d62 9c3d 6987 ed3c
000000b0: 5ba5 353c b003 0d3d 2255 16bd 8571 943d
000000c0: 14ff 893d f09b a1bd 6793 f8bb 47bc 8fbd
000000d0: 1878 7e3d 1863 38bd 0c98 953d 6891 80bd
000000e0: 45f3 1c3d be42 983d 2f92 4cbd 62ee 913d
000000f0: 9eca ad3d f193 92bd 396d 9cbd a4cf 10bd
00000100: 802a 84bd 0c87 a4bd b913 48ba dc11 873d
00000110: 3b80 45bb 78d2 843c d217 a0bd e7fc bcbc
00000120: 4be0 90bd 7a95 2abd c917 bf3d 3382 cd3c
00000130: 2f09 21bc 486e 943d 2b3c 8abd bad2 8fbd
00000140: f236 b33d 2bfe 54bc d0cb 763d 36a9 31bd
00000150: f781 1d3d dc66 8f3d 1664 a13b 0281 193d
00000160: 0745 16bd 91f7 9d3d e368 c13c 74c6 59bd
00000170: 54e5 08bd 2d7f b4ba dd11 acbb 4579 463d
00000180: 1628 61bd ff02 9bbd 24a2 bdbc 54ce aabc
00000190: 7b40 78bd d8a4 453d aeb3 96bd 68f6 35bd
000001a0: 012c 90bd 8f6c ca3b 85c0 513d d826 563d
000001b0: 8e21 2fbd 274a 86bd ebb0 8dbd 4c9f febc
000001c0: e7e6 06bd fc31 42bd 2472 c8bc 677e ed3b
000001d0: 345e 0c3b 9e89 97bb 8682 1e3c c306 fdbc
000001e0: 66a3 96bd 746b 86bd 8e19 e7bc be23 9fbd
000001f0: abb2 433c 5391 8fbc 26b4 323d 51be 7e3d
00000200: 3d45 9abd 9012 12bd e647 d63c dbb4 cc39
00000210: f431 2bbd aea2 99bd b109 c53d 71f8 2bbd
00000220: 0388 363c 2e7c b43d 0eda 203d ec84 35bd
00000230: e4c6 813d 3906 05bd a593 9e3d 2fe9 b13b
00000240: b929 4e3d 7bbb 69bc 3c73 7f3d db7f 9abd
00000250: 9c65 9e3d b270 ad3d afda 83bd a91f 90bb
00000260: 801c b23d e94e 15bd fd76 29ba 9932 4a3b
00000270: 4d8b 1fbd cab6 8dbc 0e4d 663d b39b 8cbd
00000280: cc5c 083d edec 9b3d 06b7 02bd c306 5dbd
00000290: c9d7 94bb e668 833c a3fa 8bbd 5e7c 0e3d
000002a0: 560e 823d fdf2 973d 652f c23d 71fb 6e3d
000002b0: 3ad0 a3bd f078 0bbd 99b7 0fbd dbe7 07bd
000002c0: ceb8 c7bc 498f 01bd be7a c23d 7bf5 a43c
000002d0: 25d2 1d3d b852 913c 5983 1bbd f64a 023d
000002e0: 6fab ff3c 4a80 783d 726a 4d3d a49c 053d
000002f0: e3e5 d4bc c7aa 5f3d 18fa 8f3d a20f 3a3d
00000300: bb68 a33d d72c 2b3c 6f7d fd3c c9e0 213c
00000310: c3c9 28bd bf00 16bd ad67 98bc 5a65 87bd
00000320: a321 b53d 00f3 813b 4a22 86bc ded1 3fbc
00000330: a392 293d 49f8 bdbc b54e a6bc a671 b6bd
00000340: c25a 5fbd 4710 7b3d 9799 813d 5ab1 a8bc
00000350: 7937 1d3c 3ed1 523d 735d 443c 31b7 a1bd
00000360: 0b2f 63bd c3aa acbc c27a 9fbd 1f87 76bd
00000370: 3298 27bc f087 4bbd ceb8 8d3d 5c36 96bd
00000380: 6212 40bd b1ce 1fbc 1116 1e3d 8616 a13d
00000390: 65ed ad3d f737 a6bc 3a73 993d 1bd4 97bd
000003a0: e772 85bd 8a8a 28bd 1631 723d 048b ddbc
000003b0: 98ce 8b3d 8774 ba3d 5839 23bd 2a74 a23c
000003c0: 4d13 7ebd 5f83 613d 1fa7 17bd ea1b 8e3d
000003d0: 64a7 423d 5072 833d dae0 37bd d1d0 bd3b
000003e0: 9b7b b13d 6aae d5bc 4fdf 4e3b 29e9 a63c
000003f0: 6e5b 3d3d 63d3 763d df52 663d a0dc 7d3d

output.weight f4 [1, 512]
-0.0628893 -0.006732127 0.067216866 0.04222632 0.05180694 -0.024935938 -0.065544344 0.021254443
-0.037752293 -0.037222005 -0.026667055 -0.04061188 0.025269253 -0.0535705 0.04519379 0.07626938
0.075112425 0.039532382 -0.04577858 -0.058287237 0.0028220466 -0.043686077 -0.026409158 -0.046415202
-0.007892342 -0.048607204 0.015952777 -0.0013574049 -0.047025464 0.020699607 0.04897737 -0.039737817
0.025352962 -0.04520539 0.060812224 -0.047279805 -0.02262961 -0.03761409 0.018440438 -0.037319776
-0.009417308 -0.038309954 0.044836946 0.027143676 0.025208738 -0.004230528 0.027151449 0.053059217
-0.021186722 -0.019847598 -0.07827048 -0.0075362176 -0.025687726 -0.010426867 0.018084724 -0.033128697
-0.017843245 0.043002844 0.04704508 -0.04696673 -0.044523787 0.0022861173 0.022209523 -0.03433592
0.04495216 0.043122143 0.04228618 -0.045372862 -0.037720244 -0.01895206 0.0431594 -0.027558295
0.04665314 0.026021663 -0.03921538 -0.047567874 0.048580818 0.030959666 -0.031180257 0.055120792
-0.0055783736 -0.028430223 -0.048362266 0.014533054 0.004397401 -0.048812617 -0.035579268 0.04236256
-0.042120755 0.02473333 -0.017318772 -0.033733927 0.031240458 -0.030849673 -0.01622514 -0.030843556
0.04324609 0.053839073 0.024959104 -0.03256302 0.035987727 0.047790833 0.057906646 -0.039267957
0.070892245 -0.06268907 -0.020050969 0.026002249 -0.03934097 -0.015229305 0.06579082 0.049645122
-0.035587367 -0.035803262 -0.041300878 -0.014825317 -0.0390922 0.034640525 0.029860895 -0.060307216
-0.03136017 -0.03600404 0.045512248 0.024071135 -0.032236405 0.038388398 -0.085223116 0.03246987
-0.024879321 -0.044720676 0.06264367 0.04450183 0.044052117 -0.057674117 -0.007281044 -0.013288989
-0.057769727 -0.01344316 0.053215396 -0.03882945 0.010680352 0.027164351 -0.028969489 -0.008816613
0.03988982 -0.0061829826 -0.016660709 -0.021997264 0.022189554 -0.020547878 0.008396537 -0.023454001
0.023402892 -0.031003827 0.03981461 -0.059573695 -0.017511928 0.020357957 -0.032019727 -0.034342322
0.036406428 0.032388937 -0.022095691 -0.008892162 -0.02246635 -0.040538937 0.07935176 0.05281767
0.06638626 -0.015191788 -0.036130276 0.0088234 0.018649673 -0.0495174 0.038096923 -0.06709218
0.013815253 -0.0337745 -0.019761749 -0.043621164 0.039359756 0.029509462 0.025227223 0.037331596
-0.06389711 0.039437454 -0.047795825 -0.020288052 0.020499876 -0.03446248 0.028483422 -0.021737231
0.02923328 -0.03042106 0.011273934 -0.023501255 -0.03711303 0.06592791 -0.042987965 -0.05354967
-0.07308461 -0.032075047 -0.024260046 -0.021428278 -0.028508116 0.012468912 0.036449097 0.0044458727
0.021157242 -0.032569002 -0.05252792 0.04125428 -0.030574013 -0.04134524 -0.011679329 0.022552073
-0.032408927 0.016572053 -0.044412874 -0.055118702 0.053687986 0.019497393 -0.029952565 0.026443936
0.044272687 0.03598395 0.037307426 -0.047735393 -0.03524524 -0.07095967 -0.029729316 -0.06485715
-0.030886078 -0.032880332 -0.033783637 -0.039503545 -0.045566477 -0.03921761 -0.038986746 -0.05882508
-0.0621953 -0.052499518 -0.008112106 0.026587676 0.04310617 -0.047805198 -0.025782306 -0.057834305
-0.024630891 0.016781911 -0.0077756154 0.030295046 -0.027684618 -0.03440746 -0.010555814 -0.022469575
00000000: 1bcc 80bd 2d99 dcbb ffa8 893d 81f5 2c3d
00000010: 8433 543d 7446 ccbc 1d3c 86bd cc1d ae3c
00000020: 26a2 1abd 1a76 18bd de74 dabc a558 26bd
00000030: 7701 cf3c be6c 5bbd 201d 393d 1f33 9c3d
00000040: 8bd4 993d b5ec 213d 5282 3bbd 99be 6ebd
00000050: 16f2 383b 2cf0 32bd 0558 d8bc de1d 3ebd
00000060: e24e 01bc 5918 47bd 66af 823c f3ea b1ba
00000070: c69d 40bd 3992 a93c 7f9c 483d 1fc4 22bd
00000080: 04b1 cf3c 4929 39bd 3d16 793d 78a8 41bd
00000090: bb61 b9bc 3b11 1abd 6710 973c 9fdc 18bd
000000a0: 0d4b 1abc e6ea 1cbd f2a6 373d 6a5c de3c
000000b0: 8e82 ce3c 3ea0 8abb b76c de3c 9f54 593d
000000c0: c78f adbc 6e97 a2bc 464c a0bd 60f2 f6bb
000000d0: 116f d2bc 73d5 2abc 6a26 943c f5b1 07bd
000000e0: ff2b 92bc c023 303d 58b2 403d 3060 40bd
000000f0: 935e 36bd afd2 153b bff0 b53c d2a3 0cbd
00000100: c21f 383d d8a0 303d 4634 2d3d e5d8 39bd
00000110: 8b80 1abd 5a41 9bbc e9c7 303d efc1 e1bc
00000120: 5d17 3f3d 622b d53c 4ea0 20bd 88d6 42bd
00000130: aefc 463d 209f fd3c bd6d ffbc 57c6 613d
00000140: caca b6bb 80e6 e8bc 8317 46bd 0c1c 6e3c
00000150: 1318 903b bdef 47bd 91bb 11bd 5d84 2d3d
00000160: d086 2cbd 8d9d ca3c 19e0 8dbc 962c 0abd
00000170: fdeb ff3c 74b8 fcbc 96ea 84bc a0ab fcbc
00000180: d022 313d 5c86 5c3d 0977 cc3c cd60 05bd
00000190: de67 133d 52c0 433d 852f 6d3d 70d7 20bd
000001a0: f42f 913d 2163 80bd ee41 a4bc ab02 d53c
000001b0: ff23 21bd 5684 79bc 56bd 863d af58 4b3d
000001c0: 0fc4 11bd 71a6 12bd 1c2b 29bd e3e5 72bc
000001d0: 251f 20bd 39e3 0d3d d69e f43c b304 77bd
000001e0: 8673 00bd f978 13bd 0d6b 3a3d d430 c53c
000001f0: 520a 04bd 273d 1d3d 7589 aebd 20ff 043d
00000200: b8cf cbbc 072d 37bd 534b 803d 8d47 363d
00000210: fe6f 343d b23b 6cbd d395 eebb 0fba 59bc
00000220: f39f 6cbd b340 5cbc 63f8 593d a10b 1fbd
00000230: a5fc 2e3c c687 de3c 6c51 edbc 8e73 10bc
00000240: 8263 233d 9e9a cabb 0a7c 88bc 9b33 b4bc
00000250: dec6 b53c 0654 a8bc a191 093c 9b22 c0bc
00000260: 6cb7 bf3c bdfb fdbc a514 233d 8c03 74bd
00000270: 2d75 8fbc bbc5 a63c 1e27 03bd 89aa 0cbd
00000280: e81e 153d 43aa 043d 0602 b5bc 6eb0 11bc
00000290: 5a0b b8bc 280c 26bd 2d83 a23d 5757 583d
000002a0: 85f5 873d fae6 78bc 57fd 13bd 0690 103c
000002b0: 33c7 983c c2d2 4abd 850b 1c3d a067 89bd
000002c0: 5f59 623c 2157 0abd 64e3 a1bc 1bac 32bd
000002d0: b237 213d d4bd f13c 52a9 ce3c 04e9 183d
000002e0: 7ddc 82bd 2b89 213d 8ec5 43bd 2133 a6bc
000002f0: 5bef a73c 8828 0dbd 1156 e93c 4712 b2bc
00000300: a27a ef3c 9635 f9bc 4eb6 383c b485 c0bc
00000310: d503 18bd 3605 873d 2614 30bd e656 5bbd
00000320: 62ad 95bd 2061 03bd 01bd c6bc 5b8a afbc
00000330: da89 e9bc 684a 4c3c a64b 153d afae 913b
00000340: f451 ad3c 1367 05bd 8427 57bd 3ffa 283d
00000350: 5a76 fabc a059 29bd a85a 3fbc 20bf b83c
00000360: 39bf 04bd 1dc2 873c 46ea 35bd 26c4 61bd
00000370: efe7 5b3d ffb8 9f3c 155f f5bc f4a0 d83c
00000380: 4757 353d e863 133d accf 183d 3086 43bd
00000390: 505d 10bd 4e53 91bd e58a f3bc d3d3 84bd
000003a0: cd04 fdbc 87ad 06bd b660 0abd 78ce 21bd
000003b0: eaa3 3abd a5a2 20bd 91b0 1fbd 91f2 70bd
000003c0: 80c0 7ebd bc09 57bd a3e8 04bc 66ce d93c
000003d0: 1890 303d 62cf 43bd 6a35 d3bc aae3 6cbd
000003e0: b9c6 c9bc 387a 893c 97ca febb 512d f83c
000003f0: daca e2bc d6ee 0cbd 4bf2 2cbc 1d12 b8bc
