Data/params_2.pth (torch, 276050 bytes, 5 tensors)

linear1.weight f4 [128, 13]
000000 59 5f bb bc 99 03 af 3d 79 33 c6 bd e4 a3 25 3e
       -0.022872614 0.08545608 -0.096777864 0.161758
000010 71 72 ee bc b9 5a d4 3d 34 e6 57 bd 77 a5 07 be
       -0.029107304 0.103688665 -0.052709773 -0.13246714
000020 44 6b f9 3d 50 65 5b 3e 1d 5a 38 3e 4d fc 36 3e
       0.121786624 0.21425366 0.18003125 0.17869683
000030 fe 36 fc 3d 60 18 18 be 39 e4 2c be 0b 06 87 3e
       0.123151764 -0.14853048 -0.16883935 0.26371798
000040 66 c7 8a be 2f eb 59 3e 1d 50 38 be 45 0d 74 3d
       -0.27105254 0.21281122 -0.17999311 0.059582967
000050 0e 5e 82 3e 95 7c 4b be df 4b b5 bc 78 4c fc 3d
       0.25462383 -0.19871743 -0.022130905 0.12319273
000060 1e 38 50 be 7d 35 92 bd 96 c8 e7 bb 7b d4 40 bc
       -0.20333907 -0.07139108 -0.0070734723 -0.011769409
000070 32 87 6a 3e bc 22 e7 3b 36 9b 05 bd ba 2c 70 3e
       0.22903135 0.007053701 -0.032618724 0.23454562
000080 88 b9 8e 3e f7 31 e5 3d 56 9c fb bc 59 8c 7b 3c
       0.27875924 0.11191171 -0.030714195 0.015353286
000090 d7 39 87 3e e4 76 0b bc 11 5f 11 bd a8 c0 d7 3d
       0.26411316 -0.008512232 -0.035491053 0.10534793
0000a0 a8 26 8a 3e 53 5b eb 3d 91 9f 3c 3e 0f 65 87 3e
       0.26982617 0.11492028 0.18420245 0.2644429
0000b0 9f 66 5c be c1 b9 6a bd f7 d8 2f 3d 01 da 5a 3e
       -0.21523522 -0.057306055 0.042931523 0.21372224
0000c0 52 53 77 be ed 29 64 be 78 31 5f 3d 8c 17 95 be
       -0.24152878 -0.22281618 0.054490536 -0.29119527
0000d0 7f 1f 4c bc 98 f2 04 bd 76 ed 2a be d8 bb 7e 3d
       -0.012458681 -0.032457918 -0.16692147 0.06219086
0000e0 3f 58 2c be 89 d6 04 3e 87 6a 28 3e 0e 97 a1 3c
       -0.16830538 0.12972464 0.16446887 0.019725349
0000f0 3c 9d 80 3c 60 6b 28 bd e4 a6 1a be 73 d2 30 3e
       0.015699975 -0.041118026 -0.15102726 0.1726778
000100 7e 72 9c 3d 45 44 8a be fb 3b 1f 3e e7 5a 7b 3e
       0.07639025 -0.2700521 0.15550224 0.24546395
000110 c6 31 3c 3e ba d6 5a be 86 ec 07 3e 4b d6 1e 3e
       0.18378362 -0.21370974 0.1327382 0.15511434
000120 d1 15 89 3e 6b 78 6c 3c 9c dd 1b be eb 3f c1 bb
       0.26774457 0.014433007 -0.15221256 -0.005897512
000130 71 c5 eb bc cb 33 4c be bb 73 15 bd 1c de 58 be
       -0.02878067 -0.19941632 -0.036487322 -0.21178478
000140 ea d1 f6 3d 33 ed 94 be 33 86 77 3e cc 9e 7a 3e
       0.12051757 -0.2908722 0.24172287 0.24474639
000150 e4 da e2 3d 42 99 7f 3e 2d 16 bf bd 20 ab 82 bd
       0.11076906 0.24960807 -0.093304016 -0.06380296
000160 4a f3 49 bd 0d 92 d0 3d 68 fb 8c be f0 e8 58 bd
       -0.049304284 0.10184107 -0.27535558 -0.05295652
000170 54 11 29 3c df 1d 34 3e 20 db 25 3d 71 28 82 be
       0.010319073 0.1758952 0.040492177 -0.2542148
000180 42 89 4b 3e 5a 44 31 3d 05 9c af bd 05 75 8f 3d
       0.19876578 0.043278076 -0.0857468 0.070047416
000190 26 1f 47 3d ac d0 ac bd 83 ee 2a be 62 df 80 3d
       0.04861369 -0.084382385 -0.16692548 0.06292607
0001a0 c0 29 e9 3d 04 7f 31 be 97 26 3d 3e c0 43 4c be
       0.11384916 -0.17333609 0.18471752 -0.1994772
0001b0 6f 77 29 3e bd 3c 5f 3e 6f f9 8b be 0b 51 d7 3d
       0.16549467 0.21800514 -0.2733874 0.105135046
0001c0 b9 84 72 3e df 10 ef 3d fb 0c 75 3e 7f 38 87 be
       0.23683442 0.1167314 0.23930733 -0.2641029
0001d0 25 18 12 be 62 ff 78 3d fd eb d1 3d 1e e4 35 bd
       -0.14267023 0.060790427 0.10250089 -0.044407003
0001e0 da 33 51 3e cf 13 a9 bd 7b 5c d0 3d 37 99 64 be
       0.20429936 -0.08255731 0.10173889 -0.22324072
0001f0 1b 17 ab 3d 90 b4 95 3d 38 56 6d 3e 07 c0 31 be
       0.083540164 0.0730983 0.23177421 -0.17358409
000200 55 51 bf bd 00 06 d7 bc eb 6f ec bd 9d e1 a5 3d
       -0.09341685 -0.026247978 -0.11544784 0.08099673
000210 8c 8a a9 3d 26 16 8a be b9 f1 a3 3d 28 a3 8d bd
       0.08278379 -0.26970023 0.08005089 -0.06915885
000220 d9 1a 68 bd df 35 4d bd 78 9a 8d 3e dc 52 67 3d
       -0.05666623 -0.050100204 0.27656913 0.056475505
000230 54 6c 25 3e 32 60 35 3e 27 fd f5 3d 2f 46 da 3d
       0.16154605 0.17712477 0.120111756 0.10657918
000240 bd bc 95 3e 8d 18 e4 bd 56 cd 45 be 24 7a 81 be
       0.29245558 -0.11137495 -0.1931661 -0.25288498
000250 38 c8 83 3e e2 11 cd 3c b7 d9 7b be ea 36 c0 bd
       0.25738692 0.025032941 -0.2459477 -0.09385474
000260 85 65 4a 3e dd 8b 74 be 21 d9 aa bd 80 dd e3 3d
       0.19765289 -0.23881479 -0.08342195 0.11126232
000270 61 22 25 bc 84 d4 86 3e 8e 46 b5 3b 27 67 b4 bd
       -0.010078997 0.26334012 0.0055320924 -0.08808737
000280 88 b7 6d be 67 33 a8 bd 0a 3a f6 3d 8c a2 3f be
       -0.23214543 -0.08212929 0.12022789 -0.1871435
000290 e6 bb e0 bb 0d 2f c9 bd 3b 12 22 3e cf 39 53 bd
       -0.0068583367 -0.09823427 0.15827267 -0.051568802
0002a0 7e b6 67 3e 73 62 0b 3e a6 aa df 3d 25 47 53 3e
       0.22628209 0.13611774 0.109212205 0.20632608
0002b0 81 30 40 3d d8 05 74 3d ea 43 dc 3d aa 82 bc 3d
       0.046921257 0.059575886 0.10755141 0.0920461
0002c0 51 81 11 3e 66 5c 9f 3d 81 ea 17 3e d7 ad 0b 3d
       0.14209487 0.077812955 0.1483555 0.034101333
0002d0 43 72 72 3e 4e a1 4c bc 6c 84 45 be a2 bd 4b 3c
       0.236764 -0.01248963 -0.19288796 0.012435349
0002e0 58 db 56 be 96 11 4f be bc d0 2c 3e 3d 01 6d 3d
       -0.2098211 -0.20221552 0.16876501 0.05786251
0002f0 c1 59 c3 3d 90 c4 78 3e 83 5f a2 bd fa 9d 49 3e
       0.095386036 0.24293733 -0.07928374 0.1968917
000300 0a 7b 6d 3d 42 ca 60 3e 5c 67 23 3e 3d 9c 74 3b
       0.057978667 0.21952155 0.15957397 0.003732457
000310 1f eb 2c be ba 2d 20 be b4 12 f6 3d 66 5d e5 bd
       -0.16886567 -0.15642443 0.12015286 -0.11199455
000320 27 59 95 3d de 59 60 3e 3d 09 8b bc 56 d3 fd 3d
       0.07292395 0.21909282 -0.016972179 0.12393825
000330 42 32 f7 3d ea 97 21 bd 7c 9d 8e 3e d3 86 ac bd
       0.12070133 -0.039451517 0.27854526 -0.08424153
000340 7c bd 95 3c 5d 5c 22 3e fd c2 2d 3d 5e 67 e8 bd
       0.01827883 0.15855546 0.042422283 -0.11347841
000350 69 4c 32 3e 95 b1 80 be 2a ff 8d bd a8 c5 1f be
       0.1741196 -0.25135484 -0.06933434 -0.15602744
000360 24 35 08 3e e2 f9 2e 3d c5 ff 8b be c0 af a2 3d
       0.13301522 0.042718776 -0.27343574 0.07943678
000370 04 f5 63 be 6f b4 7e be 9d aa 4b be e9 5c 74 3e
       -0.22261435 -0.24873517 -0.19889303 0.23863567
000380 cf 72 bf 3d e3 5c 8d 3e 78 bd 59 3e 9f 93 88 3e
       0.0934807 0.2760993 0.21263683 0.26675126
000390 3f 76 f4 bd 03 91 38 3b 13 69 de bc a3 e7 39 bc
       -0.11936616 0.0028162606 -0.027149713 -0.01134673
0003a0 f1 60 42 3e a7 bf 02 3d 50 ab 7f be 2d a5 08 be
       0.18982293 0.031921055 -0.24967694 -0.1334426
0003b0 b8 5e 61 be b8 fa 25 3e d0 bc a6 3d c0 e2 27 be
       -0.22008789 0.16208923 0.08141482 -0.16395092
0003c0 db be 45 be 90 7e c3 bd cb 91 07 3e 83 19 65 be
       -0.19311087 -0.09545624 0.1323921 -0.22373013
0003d0 47 83 4a bd 61 17 16 3e f7 df 0c 3e 0d 4a ef bb
       -0.049441602 0.14657356 0.13757311 -0.0073025287
0003e0 0c 82 ed bd e7 54 2f 3e f2 fb f2 3d 29 ca df bd
       -0.1159707 0.17122231 0.11864461 -0.10927231
0003f0 16 8c 89 3e 08 3d 9d bd 74 c5 8a be 48 3f 88 be
       0.2686469 -0.076776564 -0.2710377 -0.2661078

linear1.bias f4 [128]
000000 95 3c 66 be 37 e0 5f be 15 09 6a be f0 94 e5 3c
       -0.22484048 -0.21862875 -0.22855027 0.02802512
000010 06 2b 99 3d 4f e5 87 3e 9e d2 c0 ba 0f 48 9d 3d
       0.07478909 0.26542136 -0.0014711206 0.0767976
000020 52 1a 65 3c 54 be c4 bd f5 e4 e5 3d fc 7d 90 3e
       0.013983326 -0.09606615 0.11225311 0.28221118
000030 ac c2 49 3e 28 48 0e be 0e 95 89 3e b5 37 d3 bd
       0.19703168 -0.13894713 0.26871532 -0.1031336
000040 24 23 39 bd 05 55 c9 bd bd 58 8c 3e cf 66 9e 3d
       -0.04519953 -0.09830669 0.27411452 0.07734453
000050 00 65 e7 3d c7 5a 0f bc 81 a6 f3 bc c5 76 c3 3d
       0.11298561 -0.00874967 -0.029742481 0.09544138
000060 69 63 72 3c d9 ff 74 be 62 02 62 3d 17 91 be 3c
       0.014794209 -0.23925723 0.055178054 0.023262544
000070 83 c6 50 be ac 26 51 3e 39 2b 1f be fd fb 13 3e
       -0.20388226 0.20424908 -0.15543832 0.14451595
000080 ce c7 56 3c e8 aa 7b 3e 53 12 01 be c1 74 3a 3e
       0.013109161 0.24576914 -0.12604646 0.182086
000090 f7 d6 10 be e3 0f 9c 3d 4b d8 98 bd a1 d1 2f 3e
       -0.14144503 0.07620218 -0.074631296 0.17169811
0000a0 d9 89 09 bc 21 a3 c3 b8 b8 7f 50 3e be 33 00 3d
       -0.008394682 -9.32871e-05 0.20361221 0.031299345
0000b0 48 98 63 3e b0 6f 8a 3e c7 96 0d be b8 24 43 be
       0.2222606 0.27038336 -0.13827048 -0.19056976
0000c0 cc 67 1b be 1f 39 58 be e5 2a 3d be 90 a0 16 bc
       -0.15176314 -0.2111554 -0.18473394 -0.0091935545
0000d0 7e 18 c6 3d 63 44 a5 bc 2f 52 58 be ea 6c 99 3e
       0.0967264 -0.02017421 -0.211251 0.29965907
0000e0 45 f1 33 3e 66 d3 0e be 1b c7 0d 3d 85 eb 01 3e
       0.17572506 -0.1394783 0.03461371 0.126875
0000f0 a5 80 04 be db f2 3d 3d 68 d3 37 3e 47 cd 01 bd
       -0.12939699 0.046374183 0.17951739 -0.03168991
000100 b6 82 17 be 9b 10 23 be 2d 28 8a be 23 2d 11 3e
       -0.14795956 -0.15924303 -0.26983777 0.14177375
000110 dd d7 95 bd e3 e0 3f be 19 94 08 be 36 87 80 3b
       -0.07316563 -0.18738131 -0.13337745 0.0039223684
000120 82 ed 03 bc 1a c1 e3 bd 4e 8c fc 3c 74 ff 23 3e
       -0.008052232 -0.111208156 0.030828621 0.16015416
000130 07 77 d5 3d 45 e5 5c be b9 33 41 bd 45 fa 3f be
       0.10423093 -0.21571834 -0.047168467 -0.18747814
000140 27 40 8b 3e 14 8e 1d be 11 8b d5 3d d2 f4 08 3e
       0.27197382 -0.1538623 0.104269154 0.13374642
000150 0e 82 75 3e b9 5f ee bd b8 46 75 bc 03 d5 68 3e
       0.23975393 -0.116393514 -0.014970474 0.22737508
000160 a0 5b 2c be 14 c4 fa bd e6 15 89 3e 5f 86 8e 3e
       -0.16831827 -0.1224443 0.2677452 0.27836892
000170 4a 5c 66 3d 11 bd 39 3e 5d 3d 81 3e ed 6c 85 be
       0.056240357 0.1813853 0.2524213 -0.26059666
000180 11 96 2d be b1 ce 90 3e 4f 6a a2 bd 5e 36 86 3e
       -0.16951777 0.28282693 -0.07930433 0.26213354
000190 28 1f 22 be 6a 42 cb bd 7c 1b 35 be 6b 3e 05 3d
       -0.15832198 -0.09924777 -0.17686266 0.03253023
0001a0 47 d2 f8 3d 91 dc 6c be e1 f0 4d 3d cc f4 5a 3e
       0.12149482 -0.23131014 0.05027855 0.21382445
0001b0 73 ac 95 3e 02 5c 81 be e6 f6 82 3e 2b 23 92 bc
       0.2923313 -0.2526551 0.25578994 -0.017839035
0001c0 50 26 06 3d 0a 2b 37 be 28 cc 06 bd 05 42 ad 3b
       0.03275138 -0.17887512 -0.032909542 0.005287411
0001d0 83 a3 8b 3e 6a 06 24 be 9b 8d 8f bd 31 e7 7d be
       0.27273187 -0.16018072 -0.07009431 -0.24795224
0001e0 c1 c6 b3 bd 7f b8 70 be 86 ca 17 3e eb 69 8a 3e
       -0.08778144 -0.2350788 0.1482335 0.27033934
0001f0 6e 1b c3 3d 7d ec 93 bd b3 f2 73 be 31 ba 2c 3e
       0.09526716 -0.07222841 -0.23823051 0.16867901

linear2.weight f4 [512, 128]
000000 e7 df 97 3c bc e3 42 bc 6b ae 0e bd a4 43 ca 3d
       0.018539382 -0.011895116 -0.034834307 0.09876183
000010 2a 3b 7b bd 6a b2 99 bc 6c ac 45 bd 3c f9 55 bd
       -0.06133572 -0.018761832 -0.048260137 -0.05223964
000020 81 e6 5f bc de b4 18 bd c4 14 1c 3c fa 4c 47 3d
       -0.013665796 -0.037281863 0.009526435 0.048657395
000030 78 c8 03 bc 06 3a 2e bb f0 5a 94 3d 43 ec 45 3d
       -0.008043401 -0.0026584878 0.072439075 0.04832102
000040 12 04 80 bb 3e ff a8 3d 5e 9d be bd d0 9a 8d 3d
       -0.003906735 0.082518086 -0.09307359 0.06914294
000050 b4 fa 81 bc 02 04 55 bc 0f a0 d3 bc 26 ba a4 3d
       -0.015866615 -0.013001444 -0.025833158 0.080433175
000060 11 3a 6b bd 32 13 87 3d 3d f4 0f bd da 77 3c 3d
       -0.057428423 0.06595458 -0.035145033 0.046012737
000070 b8 e8 d2 bc 39 e1 82 bd e8 8d e9 bc 8e 94 0f 3b
       -0.025745735 -0.06390614 -0.028510049 0.0021908614
000080 d0 58 8c 3a 55 d9 e3 bb 6a 0d 9d 3d ac b3 ef bc
       0.001070762 -0.006953398 0.07668574 -0.029260479
000090 83 66 27 bd 9e b0 8a bd ef e6 33 bd 81 8b a7 bc
       -0.040869247 -0.06771968 -0.043921407 -0.020452263
0000a0 0a b8 b4 3d 6b 5a d9 bc 82 d2 06 3d 42 84 53 3d
       0.08824165 -0.026532372 0.0329156 0.051639803
0000b0 a2 e5 79 bd b2 66 4a 3d cd fe 90 3d 66 d5 43 bd
       -0.06101001 0.049414344 0.070798494 -0.047810934
0000c0 86 6c d8 3c 5f 26 a0 3c 25 8a 7b 3d 1f e6 23 3d
       0.026418936 0.019549547 0.06141104 0.040014382
0000d0 bd 88 0c bc 57 4f 86 bd 4f ed ef ba 1c bc 05 bc
       -0.008577523 -0.065581016 -0.0018304976 -0.008162525
0000e0 06 a2 94 ba 59 e0 ba bd d9 d0 e1 bb 01 9b a7 bd
       -0.0011339791 -0.09124822 -0.0068913517 -0.081838615
0000f0 8c 16 3c 3d 5a 1f b4 3d ea 90 a3 3c 0a c8 38 bd
       0.04591994 0.08795042 0.019966561 -0.045112647
000100 b6 a5 ac 3c e3 1c a7 bb 52 24 25 3d e1 d6 4d bd
       0.02107511 -0.005099879 0.04031784 -0.050253753
000110 81 b9 9b bc 3b 50 15 3d 00 ba 24 bd 5a 14 11 bd
       -0.019009354 0.036453467 -0.040216446 -0.0354198
000120 52 e3 52 bd 0b 34 b5 3d 3b 34 0c bd 76 8f 2f 3d
       -0.05148632 0.08847817 -0.0342295 0.042861424
000130 62 0f 91 bc 8a 50 58 bc 2d e5 2f 3d d4 83 00 be
       -0.01770753 -0.013202796 0.04294317 -0.12550288
000140 c1 89 a4 3d e8 c9 a3 3d 7e 75 b2 3c 32 45 8c bd
       0.08034087 0.07997495 0.02178454 -0.068491355
000150 02 2d 80 3c 19 aa 36 3d 56 fc 30 3d dc 4e 9c 3d
       0.015646461 0.04459581 0.043209396 0.07632229
000160 11 a7 46 bd b4 63 ae bd dc ce ac bd bf 1e 99 bc
       -0.04849917 -0.085151106 -0.08437893 -0.018691419
000170 8e 09 c6 bd 9a 81 a0 3d ed f7 0f bd b8 35 39 3d
       -0.09669791 0.078372195 -0.03514855 0.045217246
000180 32 71 b8 bd e0 bd 05 3d 1a 5b 88 3d 07 12 87 bd
       -0.09005965 0.032651782 0.06658001 -0.06595235
000190 bc 00 60 3c ee ca a0 3d 0b 68 94 3d aa 9b 2d bd
       0.01367205 0.07851206 0.07246407 -0.04238478
0001a0 d8 c0 4a 3d 0e 49 3c 3d a0 1a 0c bd 3c 05 74 bd
       0.049500316 0.045968108 -0.03420508 -0.059575304
0001b0 13 4c f2 3c f2 ac 96 bd fb 0c f5 bc 84 9a a0 3d
       0.02957729 -0.073572055 -0.029913416 0.078419715
0001c0 ba c9 d6 3c 87 53 6b 3d a0 db a0 bd 7e a9 6a bd
       0.026219238 0.057452705 -0.0785439 -0.057290547
0001d0 04 9f 47 bc c0 dc 76 bc aa a9 4d bd c7 b0 85 3c
       -0.012183908 -0.015067279 -0.050210632 0.016319646
0001e0 79 58 31 3d 3c a0 75 3c b2 03 74 3d c9 e8 76 bd
       0.043297265 0.014991816 0.059573837 -0.060280595
0001f0 7d 7b 95 3b 06 c4 ce 3b ad 2e 45 3d 3a 40 a7 bd
       0.00456184 0.006309989 0.048140217 -0.08166547
000200 fa 49 e2 bc c1 77 85 bd bf 80 b9 bc 37 8d 92 bd
       -0.027623165 -0.06516982 -0.022644399 -0.07155841
000210 24 cf d2 3b 8d 44 19 3d af e3 d4 3d c4 4f 4a 3b
       0.0064333845 0.03741889 0.1039499 0.0030870298
000220 d4 14 b0 bc 66 b9 f6 3c 55 7f 77 bd 0a 60 73 bd
       -0.021494307 0.030117702 -0.060424168 -0.05941776
000230 91 bc 85 3d 79 6f 8f 3d a8 65 25 bc ba 40 3d 3d
       0.06530107 0.070036836 -0.0100950375 0.046204306
000240 ed 38 a6 3d b4 45 a0 bd 0d 04 f3 3c 6d cc 2a bd
       0.081163265 -0.07825795 0.029665018 -0.041698862
000250 31 70 36 3b c3 d6 b7 3c 75 b4 b7 3d e3 5d 88 bd
       0.0027837867 0.022441274 0.08969966 -0.066585325
000260 78 f6 bb 3d bf e1 14 3a ce b4 5d 3d d8 a9 5d 3c
       0.091778696 0.0005679391 0.054127507 0.013529263
000270 a8 f2 ab 3c c9 ae 02 3d b0 d5 4c bd 4b e4 35 bd
       0.020989731 0.03190497 -0.050008476 -0.04440717
000280 d9 3a 39 3d 99 3f 8d 3d bc 08 95 3c 92 05 90 3d
       0.045222137 0.06896896 0.018192641 0.070323125
000290 e8 27 dc bc 8c 1f 19 3c 2c 6a 54 bd d9 35 9b bd
       -0.026874498 0.0093459 -0.051859066 -0.0757863
0002a0 48 ff 46 bc d6 2c 52 3d 89 0b f2 bc 54 97 a9 3b
       -0.012145825 0.05131229 -0.029546516 0.0051755104
0002b0 f9 9e b8 bd db 85 30 bd 03 53 67 ba bc e6 5b 3d
       -0.09014697 -0.043096405 -0.00088243204 0.053686842
0002c0 00 8b b1 bc 46 0d 96 3d 18 8c 5f bd 3b 27 8c bd
       -0.021672726 0.073267505 -0.054576963 -0.0684342
0002d0 25 94 81 bd e2 91 4a 3d e1 ef 78 3d 4c c0 a2 3d
       -0.063270845 0.04945553 0.06077564 0.07946834
0002e0 18 9d 99 3d c5 a5 80 3d a3 b9 c7 3c f5 82 ae 3d
       0.075006664 0.06281618 0.02438051 0.08521072
0002f0 b2 62 d1 3c f9 05 93 3d 1e 04 52 bd d1 3b 64 bd
       0.025559757 0.071788736 -0.051273458 -0.055721108
000300 19 35 5d bd 37 d6 a6 3d 2b 04 6a bd f2 d7 69 bc
       -0.054005716 0.08146327 -0.05713288 -0.014272677
000310 05 21 bd bc 48 64 8c 3d 71 9d 6d bd cd 8f 1a bd
       -0.023087034 0.06855065 -0.058011476 -0.037734795
000320 e9 e9 22 3d b9 33 61 3c 95 90 0b 3d 81 74 f5 3c
       0.039773855 0.013745242 0.03407343 0.02996278
000330 1c 3f 87 bd e1 9b 8c bd 38 cf 94 3d 86 2d 49 3d
       -0.06603834 -0.06865669 0.07266086 0.04911568
000340 eb 7e 42 3b 6f af ef 3a 6b 0f b3 bc fe 44 5c bd
       0.00296777 0.0018286536 -0.021857938 -0.053776734
000350 c5 9b a7 bd dd c5 7d bd 55 f0 b6 3d 14 c6 97 bd
       -0.081840076 -0.061956275 0.089325584 -0.07410827
000360 30 a4 4e bd db 7d 75 3d 5c dd 27 3d c8 4f bd 3c
       -0.05044955 0.05993448 0.04098259 0.023109332
000370 31 23 f8 3c 8b f6 97 bd 75 6a c7 bd 76 0e cd 3d
       0.030290218 -0.07420071 -0.09737102 0.10012524
000380 d1 39 a3 3b 78 f5 69 bd 44 56 aa 3d 0d a9 c7 bd
       0.0049812575 -0.057118863 0.08317235 -0.09749041
000390 ef 86 ee 3b 2c d0 9d 3d fc 71 07 bc d2 d1 83 3d
       0.007279269 0.07705721 -0.008266922 0.064365044
0003a0 ad b4 85 bd e0 30 b9 3c 48 ca c5 3a 7a 31 b4 bd
       -0.06528602 0.022606313 0.0015090192 -0.087984994
0003b0 b8 b3 9c bd b5 42 30 bc be 93 93 bc b9 12 b2 3d
       -0.07651466 -0.010758092 -0.018014785 0.08694977
0003c0 13 00 ba 3c 6d 08 1b bd 96 a8 9f 3d 9b f0 2a 3d
       0.022705114 -0.037849832 0.07795827 0.041733366
0003d0 bf 39 8b 3d fc a0 9a bd c5 6d 3d bd 64 e7 d6 3c
       0.067981236 -0.075502366 -0.046247263 0.026233383
0003e0 10 2b 9e 3a 1b 9e bd bd 62 51 1c 3d 72 12 6a 3d
       0.0012067277 -0.09258672 0.03816355 0.057146497
0003f0 6f cc ea bc 41 5d bb 3c d0 23 7c bd 2d 79 89 bd
       -0.028661935 0.022871615 -0.06155759 -0.067125656

linear2.bias f4 [512]
000000 f2 7e 18 3d b6 0b b9 bc 73 a5 2d 3d 23 0d df bc
       0.03723044 -0.022588592 0.042394113 -0.027227944
000010 8a db 07 3c 76 34 10 3d d6 bf 81 3d 29 04 6e 3c
       0.008292088 0.03520628 0.06335418 0.014527359
000020 de 93 b0 ba 10 43 ab 3c bd 7c 8d 3d af c3 22 3c
       -0.0013471802 0.020906001 0.069085576 0.00993435
000030 75 8a 8e 3d 5a 19 45 3d ad cb d3 3d 49 ea 08 bd
       0.06960002 0.04811988 0.103415824 -0.033426557
000040 09 bf b7 3d 3a 98 83 bd 4c a9 08 bd 6e 03 af 3d
       0.08971984 -0.06425519 -0.03336458 0.08545576
000050 fb 40 74 bc d8 4c 9d bb 89 75 46 3d 2f 2e 78 bd
       -0.014908071 -0.0048004203 0.048451934 -0.06059092
000060 48 9a 65 3b d6 9c 61 3d b5 1d e1 3c 69 56 9a 3d
       0.0035034586 0.05508121 0.027479986 0.07536013
000070 ee 3d f6 bb 32 20 b0 bd 4f da 93 3d 25 0e 98 bd
       -0.007514707 -0.08599891 0.072193734 -0.07424573
000080 fe d9 59 bd 3f 96 5e 3d ae 45 9a 3d a4 47 38 3d
       -0.05318641 0.054342505 0.075328216 0.044990197
000090 72 4f 7f 3c bd a9 de bc be 93 8a bd 18 26 13 3d
       0.015582906 -0.027180547 -0.06766461 0.035925
0000a0 54 69 9b 3d d2 3c f8 bc 90 f8 85 3c 4b 12 67 3c
       0.07588449 -0.030302439 0.016353875 0.0141034825
0000b0 36 8e 9b bd 34 2d c0 3d 97 51 b0 3c 19 9c 97 ba
       -0.07595484 0.09383622 0.02152328 -0.0011566906
0000c0 7f 89 84 3d 68 72 03 bb 1c c1 9a 3d fe 42 c4 bc
       0.06471538 -0.0020057205 0.07556364 -0.023957726
0000d0 7a 83 70 bd 5e 6e d0 bd 9e de c6 3b 76 43 13 3c
       -0.058719136 -0.10177301 0.0060690185 0.008988252
0000e0 a9 e1 72 bd b3 d7 33 3d 4d dd b3 3d f0 54 10 3d
       -0.059297238 0.04390688 0.08782444 0.035237253
0000f0 d0 30 4d 3d 2d 88 34 bd 34 05 43 3d cc 3a 89 3d
       0.05009538 -0.04407518 0.047612384 0.06700668
000100 b9 af af 3d a7 30 ef 3c 35 07 98 3c a0 f8 3d 3d
       0.08578438 0.029198004 0.018558124 0.046379685
000110 9e dd 3c 3d 07 5f be 3d 77 d6 25 3c 8c 11 80 3c
       0.046109788 0.09295469 0.010121933 0.015633367
000120 43 3c 83 3d 8f c6 27 3d 3c cc 73 bc 9b 79 98 3d
       0.064079784 0.040960845 -0.014880236 0.074450694
000130 aa ca 08 3c c3 da 51 bd 83 8f aa bd 72 25 91 bd
       0.0083491 -0.051234018 -0.08328154 -0.0708722
000140 36 35 8b 3d 1b 6b 35 bc c7 76 18 3d 27 69 3b bd
       0.067972586 -0.011072899 0.03722265 -0.045754578
000150 e9 62 3d 3d 6a 85 64 bd 2d ec 56 3d f9 6f 42 3d
       0.046236906 -0.055791296 0.05247133 0.047470067
000160 7b d7 ac bd 10 22 b0 3d 08 34 94 3d 33 05 be 3c
       -0.08439537 0.08600247 0.07236487 0.023195839
000170 12 b9 8e bd 0d 91 b7 bd ac 3e 4d 3d 63 b6 64 bc
       -0.06968893 -0.08963213 0.050108597 -0.0139595
000180 30 63 30 bd d2 76 71 bc e4 e9 c0 bd 0f 31 4f bc
       -0.043063343 -0.014737802 -0.09419611 -0.012645974
000190 d7 e1 87 3d a3 e1 c0 3c f2 8a 94 bc 64 30 46 bd
       0.066348724 0.023545092 -0.01813266 -0.048385993
0001a0 4e d1 ed 3c 65 16 b8 bd 64 9d 71 bd 65 d7 a6 bc
       0.029030468 -0.089886464 -0.05898799 -0.02036638
0001b0 c7 2e 97 3d c0 12 c0 3d 26 51 2f 3b c4 5f a2 b9
       0.07381969 0.09378576 0.002675125 -0.000309704
0001c0 0b cb 4e 3d d8 3c 50 3d b5 8b be 3d a5 f5 82 bd
       0.050486606 0.050839275 0.09303991 -0.06394509
0001d0 79 a7 b3 3d e7 44 62 3c c0 70 88 bb 26 87 5e bd
       0.08772177 0.013810373 -0.0041638315 -0.054328106
0001e0 08 09 50 3c 15 5d 35 3d 83 49 54 3c 3f 08 10 bd
       0.012697466 0.044278223 0.01295698 -0.035164114
0001f0 de b6 b4 3c 59 0d 98 3c f8 d3 62 3d 0d 81 80 3c
       0.022059854 0.018561052 0.05537793 0.015686536
000200 e0 c6 89 bd 2b 1e d1 bb f5 2a 10 3c 2e 2d 22 3d
       -0.067273855 -0.00638177 0.008799304 0.039593868
000210 99 fa 79 3c f2 03 fe bc b8 8b 41 3d ed 6d 29 bd
       0.015257501 -0.03100774 0.047252387 -0.0413646
000220 10 29 84 bd 88 2d d5 3d 9b 4e 03 bd 64 53 57 bc
       -0.064531446 0.10409075 -0.032057386 -0.0131424405
000230 ed ec 6c b9 48 c6 80 3d 6b b3 a6 bd df 88 38 3b
       -0.00022594976 0.06287819 -0.0813969 0.0028157753
000240 13 1a 08 3d e2 77 25 3d 42 db fa 3c 67 8d 16 3d
       0.03322799 0.040397532 0.030622128 0.036755946
000250 97 e8 02 bc 96 77 3a 3d cd 79 89 3d af cf bb 3b
       -0.007990024 0.045524202 0.06712685 0.005731545
000260 52 e0 5e bc 0f 10 41 3d 28 e4 2e bd 0c e2 7b bd
       -0.013603287 0.047134455 -0.042698056 -0.061494872
000270 e3 b2 5d bd 52 97 27 bd 8d 19 ad 3d e7 bc 7b bd
       -0.054125678 -0.040915795 0.08452139 -0.06145945
000280 da 7c 2b bc c4 91 04 bd 2d 70 a2 bd c9 dc 62 3d
       -0.010466779 -0.032365575 -0.07931552 0.05538634
000290 15 bb 29 bd 27 7d 11 3d f2 1e 47 3d 99 a3 16 3d
       -0.04143818 0.035519745 0.048613496 0.036777113
0002a0 0d 4e 85 3d d4 55 93 3c 9a d2 1e bd 69 6c bb 3d
       0.06509028 0.017985262 -0.038775064 0.09151537
0002b0 8b 14 16 3c 41 fe 78 3a 95 86 4e 3d 1e 50 22 bc
       0.009160171 0.0009498336 0.050421316 -0.009906797
0002c0 8f 12 c0 3d 99 8b 65 bc 5c 8a 4d bd f9 45 64 3a
       0.0937854 -0.014010333 -0.050180778 0.00087079365
0002d0 10 a7 03 bb 4d 6b a4 bc a7 f6 d2 3b a5 71 91 3d
       -0.002008859 -0.020070696 0.0064380947 0.07101754
0002e0 31 79 ae bd 82 b6 a1 bc 18 28 b6 bb fc eb 8d 3d
       -0.08519209 -0.019740347 -0.0055589788 0.06929776
0002f0 84 0e e3 bc 96 4d 07 bd a1 04 22 bd 6d 55 6a bd
       -0.027716883 -0.033032976 -0.039555196 -0.057210375
000300 4e 5d ac 3c 62 fd 5d 3d 58 ab b6 bd c8 78 1f bd
       0.021040585 0.054196723 -0.089194 -0.038933545
000310 36 d3 13 3c cd 61 b0 3d 51 95 07 bc 01 d4 98 3c
       0.009022525 0.08612404 -0.008275346 0.018655779
000320 50 64 96 3c ce 33 4c bd 57 8c 6f 3d d4 9a 1b bc
       0.01835838 -0.049854092 0.058483448 -0.009497363
000330 1c 41 81 3d 19 01 04 bd 4a 9c d7 3d 56 e6 25 3d
       0.06311247 -0.03222761 0.10527857 0.04050287
000340 d5 0a cc 3d c4 b7 95 bd 24 6e 54 bc 0e aa 51 bc
       0.099630035 -0.07310441 -0.012965713 -0.012796892
000350 5d 6d 9a 3d c4 50 79 bc 65 ed b4 3d 3c f0 f7 bc
       0.07540391 -0.01521701 0.08834342 -0.03026592
000360 ef ad 03 bd ae 93 95 bd 17 c6 98 bd 98 dc b0 bd
       -0.032148298 -0.07303558 -0.07459658 -0.08635825
000370 9d 74 86 3d d9 f9 4a bd 08 99 cd bc 4e d8 82 bc
       0.06565211 -0.04955468 -0.025097385 -0.015972283
000380 3a 94 b1 3d 43 bc ac bd e9 f9 ad bd 23 c2 bf bd
       0.0867085 -0.084343456 -0.08494932 -0.093632005
000390 46 c5 02 bc 90 03 b0 3d 08 86 5e bd 2d f8 5e bd
       -0.007981604 0.085944295 -0.05432704 -0.054435898
0003a0 5d 59 8e bd 2e 47 a7 3c f7 4b 40 bd 35 32 9d 3c
       -0.069506384 0.020419683 -0.046947446 0.01918898
0003b0 1c 1b 15 bd 34 96 43 bd 80 12 92 bd da 9f a8 bb
       -0.036402807 -0.047750667 -0.07132435 -0.005146009
0003c0 7a 7f a1 3d 88 34 4d bc 18 1c 18 3d 82 63 d6 3c
       0.07885642 -0.012524731 0.037136167 0.026170496
0003d0 d3 79 8f bd 7e 6a c2 3d 93 d0 8f 3d fe 1d 85 bb
       -0.07005658 0.09492968 0.07022204 -0.0040624132
0003e0 74 36 be 3d 38 d9 7e 3d 1d 0d 4f bd b7 7c 57 3d
       0.0928773 0.062218875 -0.050549615 0.05260917
0003f0 a4 86 28 3d 08 ba 35 3d 12 a1 1b bc 4a de 59 3d
       0.04114403 0.044366866 -0.009498851 0.053190507

output.weight f4 [1, 512]
000000 1f e3 35 3d b9 44 22 bd bd 43 ab 3d 7c ff 43 3d
       0.044406053 -0.03961632 0.083625294 0.04785107
000010 bc d0 04 3d 56 28 01 bd b1 f3 e4 bb 07 56 b9 bd
       0.032425627 -0.031532608 -0.006987058 -0.090496115
000020 44 99 f1 bc 6d 94 8c bd 2c 3e 70 bd 16 41 96 3d
       -0.029492028 -0.068642475 -0.05865304 0.07336633
000030 58 1b aa 3d 6d 29 ea 3c 95 10 61 bd fd d8 e6 3c
       0.08305997 0.028584206 -0.054947454 0.02817964
000040 a7 0e 1f 3c 6a a0 c2 bd 5e 72 b9 bd 12 7c 70 bd
       0.009708083 -0.09503253 -0.09055017 -0.058712073
000050 18 17 91 bd 36 d6 86 3d a1 0c 5e bc b9 0e a7 bd
       -0.07084483 0.06583826 -0.013552816 -0.08157105
000060 f3 38 d2 bc 7d 7d 02 bd 3a 26 be bd 10 f0 29 3d
       -0.025661921 -0.031857956 -0.09284635 0.041488707
000070 19 60 23 3d 99 63 c9 3c 0e 30 0e bd 67 95 9a bd
       0.039886568 0.024583625 -0.034713797 -0.075480275
000080 8f 6d 06 bd 61 1e 28 3d 34 72 90 bc 9b f4 a4 3d
       -0.032819327 0.041044597 -0.017632581 0.08054467
000090 ab f9 1f 3c 31 ee 97 bc ce 92 07 3d b0 bd 54 bd
       0.009764115 -0.018546196 0.03309899 -0.051938713
0000a0 c1 f7 9f 3d 76 56 5c bd d6 2b 89 3d 4d 69 fd 3c
       0.07810927 -0.053793393 0.06697814 0.030934
0000b0 08 d3 fd bc 03 90 82 3d d9 33 65 3d fe 0d 22 3d
       -0.030984417 0.06375124 0.05595765 0.039564125
0000c0 aa ac 4d 3d 44 34 a1 3c 1a 7a 1b 3d 23 29 a4 3c
       0.050213493 0.019678243 0.037958242 0.020039147
0000d0 1a 99 c0 3c c6 17 04 bd b1 03 77 bd be a1 19 3d
       0.023510505 -0.032249235 -0.060306255 0.037507765
0000e0 4e f1 76 bd fa 0d 40 3d 66 49 d0 bc a0 6b 48 bc
       -0.06028872 0.04688833 -0.025425624 -0.012232691
0000f0 4d bd 0c 3d d6 45 27 3d 0e ae 8e 3d 57 c2 35 3d
       0.03436022 0.040838085 0.06966792 0.04437479
000100 83 d8 5c 3d 8d 67 a9 3c 3c 20 ce 3c 09 88 39 3d
       0.05391742 0.02067926 0.025161855 0.04529575
000110 99 99 42 bd 18 a7 8f bd 80 55 ee 3c 4c 52 90 bd
       -0.047509763 -0.070142925 0.029093504 -0.07046947
000120 e9 f0 86 3c 87 ce 2b 3d eb 57 1e bd f9 7d 1f bd
       0.016472297 0.041945007 -0.038658064 -0.038938496
000130 61 c0 56 bd aa e5 27 bd eb b4 40 3c 2c d5 47 3d
       -0.05242956 -0.04099051 0.011761884 0.04878728
000140 46 4f cd bd 58 57 87 bd a4 bc 7a bd d7 48 02 bd
       -0.10024886 -0.066084564 -0.061215058 -0.031807747
000150 f4 c4 df 3c b0 27 c6 3c 8e d6 27 3d a2 63 60 3d
       0.027315594 0.024188846 0.0409761 0.054782517
000160 d5 69 5a 3d dd 24 9a 3d 97 5d 5c bc 81 fb 6e 3d
       0.053323586 0.07526562 -0.013450048 0.05834532
000170 b4 a8 6b bd ed 59 4b bd 1d 61 4a bd d6 8d 56 bd
       -0.057533935 -0.049646307 -0.04940902 -0.05238136
000180 57 08 90 3d 06 3a a0 bc 9f 90 80 3d 19 4e 5d 3d
       0.07032841 -0.019558918 0.06277584 0.054029558
000190 8b 20 c3 3c cd 25 de 3b 63 29 45 bd d5 0b 3e bd
       0.023819229 0.0067794085 -0.048135173 -0.046398003
0001a0 fb 1b 2c 3d b7 0b b1 bc c6 c6 1c 3d ba a5 12 3d
       0.04201887 -0.021612031 0.038275503 0.03580258
0001b0 70 59 ba 3c 32 34 61 bd b7 5f 4e bd 54 c7 06 bc
       0.022747725 -0.054981418 -0.05038425 -0.0082262345
0001c0 2e 0e c6 3d 8f 50 ba bd 0f da 66 bd c0 ed 85 bd
       0.09670673 -0.090973966 -0.0563603 -0.06539488
0001d0 f1 e7 1f bd 85 18 76 bd 51 58 40 bd b5 41 15 3d
       -0.039039556 -0.060081977 -0.046959225 0.036439616
0001e0 5a 6c 61 3d ff 61 cb bc f5 2b 1d 3d 57 52 56 bd
       0.055034973 -0.024827002 0.038372 -0.05232462
0001f0 b3 8b 07 bd e9 eb 19 bd 87 ac 48 bd e2 60 3c bd
       -0.033092212 -0.037578497 -0.04899266 -0.045990832
000200 81 99 6d bd bb c4 91 bd f3 98 32 3d 7d b3 8a 3d
       -0.05800772 -0.071176015 0.043602895 0.06772516
000210 d2 70 3f bd b7 02 6d bd f7 b8 4d bd 8b 5d 82 3d
       -0.046738453 -0.057863917 -0.050225224 0.06365498
000220 80 d7 94 bd b6 c7 6d bd f8 e8 4c 3d 28 08 14 bd
       -0.07267666 -0.058051787 0.050026864 -0.03614059
000230 61 ca 70 bd 19 67 00 bd 4b f0 73 bd 45 f6 26 bd
       -0.058786754 -0.03134832 -0.059555333 -0.040762205
000240 ad 70 f3 bc b5 88 6c 3d ba be 11 3d 43 a9 ef bc
       -0.029716814 0.05774756 0.03558228 -0.029255515
000250 81 a0 0e 3d 06 6a 7d bd 47 32 53 3d 0d 75 33 bd
       0.034821037 -0.06186869 0.05156162 -0.0438128
000260 8a a0 8a bd 02 97 26 3d 29 b2 30 bd 29 4f da 3c
       -0.06768902 0.040671356 -0.043138657 0.026649075
000270 a5 f3 a8 3d 98 91 92 3c ef 07 27 3d 5a d4 d8 bc
       0.082495965 0.01789169 0.04077905 -0.026468445
000280 70 65 bf 3c 61 7c 72 3d 76 3f f0 3c e4 1d 9f bd
       0.023363799 0.05920065 0.029327136 -0.07769373
000290 54 4d 33 3d c8 40 7a bd 22 e6 83 bc 93 33 2f 3d
       0.043774918 -0.061096936 -0.016100947 0.042773794
0002a0 90 16 9a bc c1 d9 88 bd f7 fd 9e bd 48 9b b6 3c
       -0.018809587 -0.06682158 -0.07763284 0.02229084
0002b0 95 7c c4 3c cd 92 bd bc ed 0c b6 bd 12 15 11 bd
       0.023985187 -0.02314129 -0.08889184 -0.035420485
0002c0 91 66 23 3d 59 58 a8 bd 8f 4a 86 3d a3 47 06 3d
       0.039892737 -0.08219976 0.0655719 0.03278316
0002d0 52 3b 78 3d 42 44 60 bd a4 c4 b3 3d e1 cf 86 3d
       0.060603447 -0.054752596 0.087777406 0.065826185
0002e0 37 b4 a1 3d ab d8 08 3c 62 25 b1 bd 0c a8 bc 3c
       0.078957014 0.008352439 -0.08649708 0.02302935
0002f0 56 eb c1 3c 3f 20 58 bd 8e ca 99 bd eb c5 05 bd
       0.023671787 -0.052765127 -0.07509337 -0.032659452
000300 60 de 40 3d 36 24 c7 bc 3c c0 0e bd b0 3a 21 3d
       0.047087073 -0.024309259 -0.034851298 0.03936261
000310 ac a8 38 3d 44 2a 81 3d 84 c2 36 3d 95 2f 4f bd
       0.045082733 0.0630689 0.0446191 -0.050582487
000320 73 44 f0 3c 5a 05 24 bd 5d e2 0c 3d 7d 33 72 bd
       0.029329514 -0.040044166 0.034395564 -0.059131134
000330 2c 8a 11 bd 03 8b 6f bd 7b 25 65 3d a8 4c 14 bc
       -0.03553216 -0.05848218 0.055943947 -0.009051479
000340 06 be 1d 3d 17 40 73 bd 7d d1 4a 3d 2b aa 68 bd
       0.0385113 -0.059387293 0.04951619 -0.05680291
000350 d5 8b ee 3c 3a 13 84 bc 6d e5 ab 3d a1 bb e2 3c
       0.029119411 -0.01612245 0.08393369 0.027677359
000360 46 18 21 bd e2 87 9a bd f4 c9 dc bc 83 13 23 3d
       -0.03932979 -0.07545449 -0.026951768 0.03981353
000370 90 5e 96 bb c5 55 e8 3c 2a 99 77 3d 39 d7 5f bd
       -0.0045889094 0.02836121 0.060448803 -0.05464861
000380 d9 53 3a 3d 94 dc 6c 3d 6e b7 41 bd 8b fc a4 bc
       0.04549012 0.057827547 -0.047294073 -0.020139953
000390 ce db 4e 3d 3e 7f 58 3d 97 38 9a bd 70 93 53 3d
       0.05050259 0.052855723 -0.07530325 0.05165428
0003a0 cf 67 14 3d 7d 5f 1c 3d b8 0b 24 bd 47 c1 9e bd
       0.036231812 0.038177002 -0.04005024 -0.077517085
0003b0 2f 2c 9a bd f1 b0 81 3d e8 23 3f 3d b8 dd 02 3d
       -0.075279586 0.06332577 0.046665102 0.03194973
0003c0 9a 28 4f 3d 0e b1 72 bd e1 af b9 bc 3b 16 09 3c
       0.05057583 -0.059250884 -0.022666873 0.008367117
0003d0 6a 8f b4 3d 64 0c 1a 3d 09 4f 55 3d 09 69 f1 bc
       0.088164166 0.037609473 0.052077327 -0.02946903
0003e0 74 31 36 3d 77 7e 49 3c 37 b4 1f 3d e0 6a 45 bd
       0.044480756 0.012298218 0.038990226 -0.048197627
0003f0 c7 cf 54 3d 87 cc 04 3b 31 ed 0f 3d b9 8a 9b bd
       0.051955964 0.002026351 0.035138313 -0.075948186
