Data/params_1.pth (torch, 276050 bytes, 5 tensors)

linear1.weight f4 [128, 13]
000000 2c fa f8 3d 42 09 3a 3e e9 2e 1f be b9 29 8a 3e
       0.121570915 0.18167594 -0.15545239 0.26984957
000010 89 c1 87 bc 23 ad 9b 3e 52 e8 95 be 6c 85 2f be
       -0.016571777 0.3040553 -0.2927881 -0.1714074
000020 73 fc e6 bc d1 4a 7e be 9f 7b 85 3d 78 b2 ae bd
       -0.028196549 -0.24833228 0.065177195 -0.08530134
000030 ec b5 cc bd e9 51 6b be 97 7d 40 3e 7e 72 24 be
       -0.09995636 -0.22980465 0.18797909 -0.160593
000040 bd 15 28 be 78 6c 82 be 10 95 f4 3d df f1 0b be
       -0.16414542 -0.2547338 0.11942494 -0.13666485
000050 64 b8 75 3e 43 d5 01 3e c3 be 7b bd a7 6d 4e be
       0.2399612 0.12679009 -0.06146122 -0.20159017
000060 58 61 66 3e 08 32 ca 3d fa dc ff 3d 40 fd 9f 3d
       0.22498071 0.09872824 0.1249332 0.078119755
000070 ba 0e 58 3e be 40 4d 3e 60 a7 0a be e2 07 0f 3e
       0.21099368 0.20044228 -0.13540411 0.13967851
000080 ce 25 75 3c a4 da ea bd c6 4b 1d 3e d9 9d 0d be
       0.014962627 -0.11467484 0.15360937 -0.13829745
000090 1c 41 b1 bd 1a 42 90 3c 0c 9b c0 3d 5f 16 49 be
       -0.08654997 0.017609645 0.09404573 -0.1963744
0000a0 47 b3 81 3e 87 b4 85 be 52 d0 67 be 0c 5c 43 3d
       0.2533209 -0.26114294 -0.22638062 0.047695205
0000b0 ae 73 2d be c2 9f 0c be 39 08 a2 3b 87 00 38 3e
       -0.1693866 -0.13732818 0.004944828 0.17968951
0000c0 c8 5c 12 3e c7 c6 4e be a8 26 bd bd 2f 22 9c 3d
       0.14293206 -0.20193015 -0.09235889 0.076237075
0000d0 34 a6 72 3e 4f b1 6d be 25 0c c0 bd 89 5b 80 be
       0.23696214 -0.23212169 -0.093773164 -0.25069836
0000e0 2a 71 3f 3e 42 4e 12 3e ca 96 9f bd f3 a9 97 3d
       0.18695512 0.14287665 -0.077924326 0.07405462
0000f0 f9 bc 92 bc b7 12 49 be c0 12 14 3e 3f 4d 85 be
       -0.017912375 -0.19636045 0.14460278 -0.26035497
000100 a3 0a 64 be ed 4f d6 3d de e3 c5 3c be cd 86 be
       -0.22269683 0.104644634 0.024156507 -0.26328844
000110 ca 7d a3 3d b9 74 92 3e 68 97 af bd 99 de 5c 3e
       0.07982977 0.28604677 -0.085738 0.2156929
000120 13 a3 a2 bd a1 b3 00 3e ec 76 41 be 37 fe e3 bc
       -0.0794126 0.12568523 -0.18893021 -0.02783118
000130 e3 c2 8d 3e a3 f7 b2 3d 9d 7d 25 3e 81 5f 94 be
       0.2768775 0.08738639 0.16161199 -0.28979114
000140 83 5d 38 be 1f 37 8a be f4 ff 53 3e f6 a6 0b 3e
       -0.18004422 -0.2699518 0.20703107 0.1363791
000150 75 45 f5 bd 7a 39 0d be 7a 8c 8a bd 6a 2b fb 3d
       -0.119761385 -0.13791457 -0.06765075 0.1226414
000160 ff 23 38 3e 12 75 a5 3c bd 46 0e 3d cc 9d b2 bd
       0.17982481 0.020197425 0.03473543 -0.087215036
000170 28 db 01 3e 3c 06 de bd 66 87 73 bd d0 26 88 3e
       0.12681258 -0.10841033 -0.059455298 0.26592112
000180 4b 72 02 be 8d 31 da bd e9 8c bc bd f3 ea 3e 3e
       -0.12738912 -0.10653982 -0.09206564 0.18644314
000190 80 3b 8c be a9 25 97 3e 32 fb fe bd 18 eb 89 3d
       -0.27389145 0.2952092 -0.124502555 0.06734294
0001a0 91 8f 02 3d 02 cb 80 3e af 0d d6 bd d4 34 d6 bd
       0.031875197 0.25154883 -0.10451829 -0.10459295
0001b0 0d dc ad bc 41 63 08 bd 85 5e fb bc 9d 17 39 3d
       -0.021223092 -0.03329778 -0.030684719 0.045188535
0001c0 d1 6f 80 be 58 22 88 3d 8e 15 77 3e a1 2c 77 3d
       -0.2508531 0.066471756 0.24129316 0.060345296
0001d0 5c 40 23 ba 27 98 2d be f2 56 86 3b 7a de a1 3d
       -0.0006227547 -0.16952573 0.00409972 0.07903762
0001e0 77 5b 68 3e 1f 1a 1b be e5 fa 10 bd da 45 e5 bd
       0.22691141 -0.15146683 -0.03539552 -0.11194964
0001f0 61 1f 10 3e ce de 21 3c e7 43 0b 3e 41 e6 61 be
       0.1407447 0.009879781 0.13600121 -0.22060491
000200 12 98 4b be 98 43 6b be b3 d4 15 3e cf 65 5e 3e
       -0.19882229 -0.22975004 0.1463192 0.21718524
000210 33 d4 f6 3c 3c fb 51 3e fe 23 e3 3d 6c e8 80 be
       0.030130481 0.20505995 0.11090849 -0.25177324
000220 dc ce 10 be 18 cd 0a 3c 79 d3 31 bd 20 f8 05 be
       -0.1414141 0.00847175 -0.043414567 -0.13082933
000230 35 04 e9 bd 8b 7c 1e be 85 00 4b 3d 75 b0 88 3e
       -0.113777556 -0.15477197 0.049561042 0.26697126
000240 5a d5 85 bc 44 b8 80 3e 70 a4 81 be 2d 8b 9e bc
       -0.016337086 0.25140584 -0.25320768 -0.019353474
000250 85 bd c0 bc c2 96 ee bd 5c c5 41 be 39 53 78 be
       -0.02352787 -0.116498485 -0.18922943 -0.24250497
000260 7c 9a 7b 3e 15 78 45 be 50 3a bb bc 9a 93 a2 bd
       0.2457065 -0.19284089 -0.022854954 -0.07938309
000270 68 ca 69 bd d8 6f 9d bb ac 57 79 be 55 65 5c bc
       -0.057077795 -0.0048045926 -0.2434985 -0.013451894
000280 da 5c 99 be 3e 4e 1b be c0 53 7b bd ca 8a 1b 3d
       -0.29953653 -0.15166566 -0.061359167 0.037974156
000290 17 95 30 bd 3c d1 17 be 56 85 c9 bd ae 1d 9c 3e
       -0.043110933 -0.1482591 -0.09839885 0.30491394
0002a0 82 3b b0 3d ef b2 3e bd 9a 03 98 bd 39 e6 37 3d
       0.086051 -0.046557363 -0.07422562 0.04489729
0002b0 a3 c4 97 3d 32 5f 9c bd e4 bb 0b be 7b d6 c9 3d
       0.07410552 -0.076353446 -0.13645893 0.09855362
0002c0 08 61 e3 3d c2 51 19 3e c2 43 56 3e b1 6a 55 3d
       0.111024916 0.14972594 0.20924285 0.052103702
0002d0 44 83 62 be 4e 8b 69 3e 0d 35 40 be b4 ee 80 be
       -0.22120386 0.22807047 -0.18770237 -0.25182116
0002e0 91 0b 46 3e 68 01 2c be 20 13 83 3e e0 d6 ee bd
       0.1934035 -0.16797411 0.2560053 -0.11662078
0002f0 05 f3 c3 bd 8b e8 80 be 84 81 12 be 47 a2 64 3e
       -0.09567837 -0.25177416 -0.14307219 0.22327529
000300 01 70 4f 3e 15 5e 72 3e 60 d0 8e be 7b 73 69 bd
       0.2025757 0.23668702 -0.27893353 -0.056994896
000310 e3 5a 87 3e b4 05 6a be 91 0f c4 3d ba e9 08 3e
       0.2643653 -0.22853738 0.095732816 0.1337041
000320 48 c2 0b 3e 7e 64 b1 bd 5a da 45 3e 71 0e c3 bd
       0.13648331 -0.086617455 0.19321576 -0.09524239
000330 c1 bb 04 3c 2c 14 bc 3c 64 f6 4d bc a5 c9 64 3e
       0.008101405 0.022958837 -0.012570951 0.22342546
000340 64 0f 42 be 7d 78 aa 3d a6 62 bd bd 41 98 0e 3e
       -0.18951184 0.083237626 -0.09247331 0.13925268
000350 ea e9 8d 3e 1b 60 4e 3e b0 61 77 be 32 2e a3 3e
       0.27717525 0.20153849 -0.24158359 0.31871182
000360 7a 66 1d 3e f5 de 13 bd b6 57 53 3e 46 29 92 bc
       0.15371123 -0.0361013 0.20638928 -0.017841946
000370 b7 1e 65 3e 91 97 f6 3d 42 7d 96 3e 33 99 c0 3b
       0.22374998 0.12040628 0.2939244 0.005877638
000380 2c 0a 71 3e ea 3d 45 be 87 c8 94 3e 31 11 9c 3c
       0.23539037 -0.192619 0.2905924 0.019051166
000390 c3 a0 f6 3d 73 d0 fd 3d 64 3e 4b be 48 d2 90 bd
       0.120423816 0.12393274 -0.19848019 -0.07071358
0003a0 97 54 d0 bd c9 d4 85 bd 27 30 97 3e c6 15 41 be
       -0.10172384 -0.06534726 0.29528925 -0.18855962
0003b0 48 04 72 be c3 57 2f 3e 6d eb 85 3e 0c 30 ab bd
       -0.23634446 0.17123322 0.26156178 -0.083587736
0003c0 b3 c2 86 3e b3 a6 1e be 30 f7 4b 3e 13 af 24 be
       0.2632042 -0.15493278 0.19918513 -0.1608241
0003d0 60 ed 09 be a9 8c 10 3e a1 38 e3 bd b5 2e 69 3c
       -0.13469458 0.14116158 -0.110947855 0.014232327
0003e0 7b a5 88 be 66 ff b6 3d f6 29 90 3e e1 93 16 be
       -0.26688752 0.08935432 0.28157014 -0.14704849
0003f0 1b bc d3 bc 84 78 61 be 99 8b b4 3c 24 8f 6c 3c
       -0.025846532 -0.2201863 0.022039222 0.014438424

linear1.bias f4 [128]
000000 af f8 40 be e0 57 d7 3d 67 22 6e 3e d1 cc 88 3c
       -0.18844865 0.10514808 0.23255311 0.016699227
000010 e1 40 4a 3d 9b 2a 2a 3d 0f 51 98 bd c0 a5 fb bd
       0.04937828 0.041544538 -0.07437336 -0.12287474
000020 8a eb 45 be d1 77 ac bb 9e 1c 93 3e 22 82 76 3e
       -0.19328132 -0.0052633067 0.2873277 0.24073079
000030 56 73 73 3e 2a d0 8b 3e 88 a3 a9 bd 37 d6 8a be
       0.23774466 0.27307254 -0.08283144 -0.27116558
000040 93 09 70 be 5d 7f 5d 3e aa f0 13 be c6 52 42 3e
       -0.23441152 0.21630616 -0.14447275 0.18976888
000050 96 6a 91 3e 33 2c 92 3e a9 e1 90 3e 1b f0 87 be
       0.2840163 0.28549346 0.28297165 -0.26550373
000060 3e 3c 02 bd 8a c8 44 3e a7 95 0e be ae 76 f4 bd
       -0.031795733 0.19217125 -0.13924275 -0.11936699
000070 bc 30 99 bd 83 d3 07 3e cf 5f 66 be 2f 72 17 3d
       -0.074799985 0.13264279 -0.22497486 0.03697413
000080 6d 89 c3 bd 51 ff e1 3d a5 2c 5b 3e 41 1d 5e be
       -0.09547696 0.11035026 0.2140375 -0.21690847
000090 0d 17 62 3e 77 03 5c 3e 78 16 82 3d 0a 03 65 be
       0.22079106 0.21485697 0.06351942 -0.2236444
0000a0 cd cc a9 bd 4d a0 63 3e 87 6a 0b 3e 25 9e bb 3d
       -0.08291016 0.22229119 0.13614856 0.09161023
0000b0 ab 9f 57 3c 3b 87 02 3e b5 bb 14 bd a9 b2 24 be
       0.013160626 0.12746899 -0.036311824 -0.16083778
0000c0 1a 02 70 be 15 17 35 3e ff f1 a2 3e 5f 91 9a 3e
       -0.23438302 0.17684586 0.31825253 0.30189034
0000d0 b2 73 94 3e 3e e3 b7 3a c3 f6 08 3e 6a a6 b5 3d
       0.2899452 0.0014029515 0.13375382 0.088696316
0000e0 11 4d b0 bd 31 01 67 be 5c 40 48 3d d4 6c ea 3d
       -0.08608449 -0.22559048 0.048889503 0.114465386
0000f0 c2 60 92 be 0f cc 53 3e e1 c9 52 be 83 4c 49 be
       -0.28589445 0.20683311 -0.20584823 -0.19658093
000100 f4 ab d1 3d 28 04 dc bd 24 78 7c be 1b d7 87 bd
       0.102378756 -0.1074298 -0.24655205 -0.06632825
000110 84 b8 b9 bc c6 1f 4e be 13 b4 2f be 5a 80 13 be
       -0.022670992 -0.20129308 -0.17158537 -0.14404431
000120 54 16 8d bd a5 9a 7b 3d bd 2e 4b 3e da 13 a0 3b
       -0.068890244 0.061426777 0.19842048 0.004885179
000130 fc 06 63 be cb 92 b9 3d 46 e9 5d 3e 5d 3d b2 bc
       -0.22170633 0.09061202 0.21671018 -0.021757776
000140 07 ea 19 3e 0b 68 00 3e 74 35 31 be 72 45 72 be
       0.1503068 0.12539689 -0.17305547 -0.23659304
000150 1f 07 49 3e 31 a9 f0 bd e9 8f 67 be 6d dd 9a 3e
       0.19631623 -0.11751021 -0.22613491 0.3024706
000160 95 a8 7a 3c 5b 81 6a 3d 85 e9 81 bc c8 6c 47 be
       0.015298982 0.05725227 -0.015858421 -0.1947509
000170 ed db 57 be 58 a9 74 bc d1 d1 95 3e 86 ab d8 bd
       -0.21079989 -0.014932953 0.2926164 -0.105795905
000180 0e 1b fc 3d 01 0f ba 3d b9 2d 99 3e 8f 9b 69 be
       0.12309848 0.09084893 0.29917696 -0.22813247
000190 d3 66 96 3d c7 14 0a 3e 19 65 3e be ca ae 8a 3d
       0.07343831 0.13484488 -0.18593253 0.067716196
0001a0 90 64 39 be 20 e4 44 bd 14 88 dd bd e6 87 fd 3d
       -0.18104768 -0.04806912 -0.108169705 0.12379436
0001b0 ac 1a 17 be 39 b3 da bd 64 93 54 be 87 f6 5e 3e
       -0.14756268 -0.10678715 -0.2075935 0.2177373
0001c0 8d 47 5b be dd 92 57 3e ae 25 75 be 93 8c 51 3d
       -0.21414013 0.21052118 -0.23940155 0.051159453
0001d0 de 66 9b 3d 15 d0 d6 3a 95 b1 a0 3e b5 8e 76 3d
       0.0758798 0.0016388918 0.31385484 0.06019469
0001e0 f9 97 1a 3e 44 8d 9c bc 85 9f 3c 3e 9a ee 82 3d
       0.15097035 -0.01911033 0.18420227 0.06393166
0001f0 0e 92 40 be 86 63 2d 3e c5 a7 44 be eb ab 13 be
       -0.18805715 0.16932496 -0.19204624 -0.1442105

linear2.weight f4 [512, 128]
000000 4b 82 31 3d cb 53 57 3d 45 3c 2e bd e8 38 ef 3b
       0.043337148 0.052570146 -0.042537946 0.007300485
000010 9a b1 36 3b 07 95 84 bd 8d f7 43 3d 15 8e 67 3d
       0.0027876855 -0.06473737 0.047843505 0.056531984
000020 01 0a 6a bd 48 86 85 3d da ce 4e 3d 4b af b6 3c
       -0.057138447 0.06519753 0.050490238 0.022300383
000030 ad 0b 09 3d cf 62 b3 bc 3b c4 86 3d 3f 7d af 3c
       0.0334584 -0.021897702 0.06580397 0.021422027
000040 0a f7 15 bd bf d0 9e bd 8c ad 9d bc 83 67 7d bd
       -0.036612548 -0.07754659 -0.019247793 -0.061866295
000050 26 06 38 bd de d8 ea bc 0d 9a 50 3b 49 9d 84 3c
       -0.04492774 -0.028667863 0.0031830103 0.01618828
000060 3d af 8e 3d 83 8c 3a bd da fc 5c bc 9c 50 82 bd
       0.06967018 -0.04554416 -0.013488019 -0.06363031
000070 e6 45 65 3d e2 6a cd bc 3a 0c 3a 3c 15 9d 8c bc
       0.055974863 -0.02507538 0.011355454 -0.017164746
000080 6b 19 ac bd 99 dc e4 bc e8 1b 73 bd 5b 74 24 bd
       -0.084032856 -0.02793722 -0.059352785 -0.040150028
000090 45 56 83 3d 7c a3 ac 3d b6 02 43 3c d5 62 5d 3d
       0.06412939 0.0842962 0.011902502 0.05404933
0000a0 1e 06 9f bd 01 e3 ea bc 9d 04 94 bd 17 24 5b bd
       -0.07764839 -0.028672697 -0.072274424 -0.053501215
0000b0 dd 2f 17 bd 66 46 5a bc 83 99 24 bd d9 76 1d 3c
       -0.03691088 -0.013322448 -0.040185463 0.009610855
0000c0 42 1e 8a 3d 35 a2 3a bd 23 0a ac 3b 1b ac 2e 3a
       0.067440525 -0.04556485 0.005250232 0.0006663219
0000d0 20 99 45 bd b0 71 34 3d de 9c a0 3d 4e 94 89 3d
       -0.048241735 0.044053733 0.0784242 0.0671774
0000e0 63 fa 9a 3d 7a 5a 01 3d 19 16 e1 b7 f3 3c b9 3d
       0.07567289 0.031580426 -2.683238e-05 0.09044828
0000f0 07 92 17 bd b1 ba 07 bd 21 c3 b5 bd 20 62 53 3d
       -0.037004497 -0.033137027 -0.088751085 0.05160725
000100 23 02 90 3c a0 89 87 3c 4d a6 dd bd 2c ed 32 3d
       0.017579144 0.016545117 -0.10822735 0.043683216
000110 23 6d c7 bc 44 e8 9b 3d 12 c9 3f 3b e9 c5 c0 3c
       -0.024344033 0.076126605 0.0029264134 0.02353187
000120 61 98 c0 bb 09 4a 07 bd 8e 3f ed ba c1 4a 11 3c
       -0.00587754 -0.03302959 -0.0018100606 0.00886792
000130 b6 ca 74 3d bf 3b 8a 3b 27 9c 0f 3d 27 5d db 3c
       0.059763633 0.004218548 0.035061028 0.026777817
000140 ef d8 bb bc 8d bc a9 3d 62 7a 77 3d 5d 4d 75 bd
       -0.02293059 0.08287916 0.060419448 -0.059888232
000150 d2 b3 f6 bc 5c 78 2a 3d 6b 68 5f 3d 5b 73 ac 3d
       -0.030115042 0.04161869 0.05454294 0.0842044
000160 89 ce f7 3c b9 17 0d 3d fe 05 22 3d d2 ba bd bc
       0.03024985 0.03444645 0.039556496 -0.023160372
000170 74 38 18 bd 43 13 3d bd c3 ae 94 bc d3 cd 08 3d
       -0.037163213 -0.046160948 -0.01814974 0.033399414
000180 48 57 f4 bc d0 b6 00 ba f2 2b cc bc 5a 93 80 3d
       -0.029826775 -0.00049100537 -0.024923299 0.06278105
000190 b7 92 03 bc cb 70 9c 3d c4 1d 2b bd 3a 4f 9c 3d
       -0.008030585 0.07638701 -0.041776434 0.07632299
0001a0 7a 8f 92 bd 08 16 fd 3c 1b b7 98 3d 0c fa a7 bd
       -0.07156272 0.030894294 0.074567996 -0.082019895
0001b0 f1 1d 9c bd 59 b0 d0 bc 89 8d 7b bb 81 5e 45 3d
       -0.07622898 -0.025474714 -0.0038383922 0.04818583
0001c0 5f c0 90 3b 4b 14 00 bd 29 db 97 bd f3 1a 97 3d
       0.0044174637 -0.031269353 -0.07414848 0.07378187
0001d0 cc 4b 0a bd 31 a8 02 bc 9a 6e 2c 3d ea c4 79 3d
       -0.03376369 -0.00797467 0.042097665 0.060978808
0001e0 ee a8 97 bd e8 e4 44 3d 4e af c8 bd c9 25 aa 3d
       -0.07405268 0.048069865 -0.09799062 0.08307988
0001f0 36 a5 39 3d 11 20 b7 bc db c0 22 3d f4 46 33 3c
       0.045323573 -0.022354158 0.039734703 0.0109422095
000200 51 52 0a bd da 4b 34 3d 5d be ab 3c 60 51 ba 3c
       -0.03376991 0.04401765 0.020964796 0.02274388
000210 a2 40 98 3d 33 e6 98 3d 36 c9 0c bd d9 20 0d 3d
       0.07434203 0.07465782 -0.034371577 0.034455154
000220 b9 bf 9a bd 85 e4 9d bc a5 9d 60 3d 60 ea 39 bd
       -0.075560994 -0.019274006 0.05483784 -0.045389533
000230 b8 ac 9f 3d a9 03 b6 bd 6f b2 6f bd 69 d8 09 bc
       0.07796615 -0.08887417 -0.058519777 -0.008413413
000240 f5 30 34 bd c1 60 95 bd 7f 98 fe bc ee 64 d7 3d
       -0.043992 -0.07293845 -0.031078575 0.10517298
000250 22 cf 6c 3d b6 f5 8c bd 99 c7 ad 3d 87 3c e8 bb
       0.057814725 -0.06882803 0.08485336 -0.0070872935
000260 d3 64 b1 3d 40 1f db bd 0c b2 b7 bd e7 92 f1 bc
       0.08661809 -0.1069932 -0.089695066 -0.029488994
000270 61 88 7c 3d c1 43 65 bd 40 2a 83 bd e8 68 be 3c
       0.0616535 -0.05597282 -0.06404543 0.023243383
000280 ba c3 e9 bc 19 6e 8f bd 56 be ad bd ac 12 b8 3d
       -0.028535713 -0.07003421 -0.08483569 0.089879364
000290 83 53 59 3d 54 e8 04 3d 82 86 b1 bd ef aa 73 3d
       0.05305816 0.032448128 -0.086682335 0.059489187
0002a0 49 6e 1a bd a6 43 b6 3d 29 42 df 3c e4 bd 0e 3c
       -0.037702832 0.08899622 0.027253227 0.008712266
0002b0 50 cf 4b 3b 15 aa d8 3c df 09 b6 3d e3 35 84 3d
       0.003109891 0.026448289 0.088886015 0.064555906
0002c0 40 93 36 3c 87 3c 3d 3d 0f 32 72 bd 9a 4b 2a bd
       0.011143506 0.0462003 -0.05912977 -0.041576006
0002d0 b5 cd f3 3a c1 4e 8c 3c be 38 c4 bc bc 1c cc 3d
       0.0018600734 0.017127397 -0.023952838 0.09966418
0002e0 0d a9 7b 3a 16 76 f9 bc 0e 71 7a 3d 12 6a 77 bd
       0.00096000807 -0.030451816 0.061142974 -0.06040389
0002f0 60 84 96 3d d7 d2 68 bc d2 64 8b 3c b7 6d a0 3c
       0.07349467 -0.014210424 0.017015848 0.019583566
000300 ff 0a 3e 3d 79 3b 04 bc 13 95 a7 bc 47 0d 97 bc
       0.046397205 -0.00807082 -0.020456826 -0.018438948
000310 ea 01 55 bd a0 65 1d bc ed 29 06 3c 68 8d 18 bd
       -0.05200378 -0.009606749 0.008188707 -0.03724423
000320 4a d0 79 bd a7 61 06 3c c0 36 a9 3c 20 5f 3e 3d
       -0.060989656 0.008201993 0.02065599 0.046477437
000330 27 51 a1 3b 16 a7 e6 bc 5f d0 bc 3d c1 c3 5f bd
       0.004923004 -0.028155845 0.09219431 -0.054630045
000340 a0 59 5a bd 1a 3d 8d bc d4 9a 8b 3d 79 4e a9 3c
       -0.05330813 -0.01724105 0.068166405 0.020667301
000350 d2 0d f8 bc e9 13 69 bd a0 35 60 3d 4b e7 69 bd
       -0.030280028 -0.056903753 0.05473864 -0.057105344
000360 ac 9c a1 bd df 51 05 3d 97 e5 39 3d 1c 1b 50 3d
       -0.07891211 0.03254878 0.04538497 0.050807104
000370 24 37 57 3c 0b f4 cc bd 33 04 3e bd e3 9e b1 bd
       0.013135705 -0.10007485 -0.046390723 -0.08672883
000380 96 0b 1a 3c 33 43 cc 3d df 5a 85 bd 88 50 15 3d
       0.009402176 0.09973755 -0.06511473 0.036453754
000390 45 6c 20 3b c7 d8 4e 3d f7 ae 56 bc 8e cf 58 3d
       0.0024478596 0.050499704 -0.013103238 0.052932315
0003a0 7d 8e c0 3d 03 81 6e 3d ea cd 2e bd 31 52 29 bd
       0.094021775 0.058228504 -0.042676844 -0.04133815
0003b0 37 e0 7c bd ff a9 c3 bd a5 ec 7a bd 88 c4 7b bc
       -0.061737265 -0.095539086 -0.061260838 -0.015366681
0003c0 bd 2c b4 bd 2f 8a 90 bd 45 6c fa 3c 26 23 77 bd
       -0.08797596 -0.070576064 0.030569205 -0.060336255
0003d0 88 15 c6 3d 9a 35 d4 bc 0b d0 33 3d b1 4d 08 ba
       0.096720755 -0.025904465 0.043899577 -0.0005199565
0003e0 31 5c 94 bc 7b d0 a3 3b fa bd 88 3d 72 db 44 3d
       -0.018110367 0.004999218 0.0667686 0.04806084
0003f0 5f a7 29 3d 3b b3 77 bc 66 54 ac bd f9 bc d4 bd
       0.041419383 -0.0151184155 -0.08414535 -0.10387606

linear2.bias f4 [512]
000000 c4 fc ed bc b1 ba 9d bc 3e ea 68 3c 6a 51 12 bd
       -0.029051192 -0.01925406 0.014216004 -0.035722174
000010 7f 4b 92 bd 63 5b 96 3c 8c eb b1 3d be 2e 31 bd
       -0.07143306 0.018354123 0.08687505 -0.043257467
000020 b2 1a 30 3d 4f 98 8d 3b 06 9b b1 bd 24 a7 33 bc
       0.04299421 0.004321135 -0.086721465 -0.010965142
000030 64 2a bf 3c 99 e8 12 bd 27 ab 61 bc fe 36 cc 3b
       0.023335643 -0.035866354 -0.013773716 0.0062321415
000040 45 f6 e4 3d 53 b6 8b bd e8 f3 f1 3c d7 ca 98 bc
       0.11179785 -0.06821885 0.029535249 -0.01865141
000050 30 7b 36 3c 32 52 e8 3c a5 c2 2f bd c6 aa a0 3c
       0.011137769 0.028359506 -0.042910237 0.019612681
000060 a4 65 aa 3d 06 03 a7 bd 8e 07 7e bd d7 d9 ce bb
       0.08320168 -0.081548735 -0.062018923 -0.0063125896
000070 eb f2 85 bd ad 95 9d ba 29 a4 3f 3d 5f 7a 88 3d
       -0.065404736 -0.0012022756 0.046787415 0.066639654
000080 dc 95 4f 3d 49 bf 4e bc 60 83 7b bd a3 dd e6 3d
       0.050680026 -0.012618848 -0.061404586 0.112727426
000090 26 b6 8a bd 7e d6 23 3d 6b bd 43 3d eb dd a1 bc
       -0.06773023 0.039999478 0.047788065 -0.019759139
0000a0 bd 6e 3a bd 4d 96 53 bc 51 2b ec 3c 1d d3 11 3d
       -0.045515765 -0.0129142525 0.028829249 0.035601724
0000b0 d6 fe 19 bd 0b 7e 21 bc b5 7b d7 bc 3b c0 21 bc
       -0.037596546 -0.009856711 -0.026304105 -0.0098724915
0000c0 76 fa 8a 3c 13 2e 97 bd b5 fb 61 3d bf b4 b2 bc
       0.016965132 -0.07381835 0.055171687 -0.021814702
0000d0 c7 c6 a5 3d 2f e3 8a bd 5e 72 ab 3c 5a 91 14 3c
       0.080945544 -0.06781613 0.020928558 0.009067858
0000e0 a8 12 a6 bd 65 da 85 3c 74 36 9c bc e6 25 61 3d
       -0.08109027 0.01633949 -0.019068934 0.054967783
0000f0 e1 04 82 bd de 42 ea bc b9 be 00 3d 41 ac ef bc
       -0.06348587 -0.028596338 0.031431887 -0.029256942
000100 29 b8 8d bd e5 4c 1a bc 2f 74 7a 3d 77 f7 a8 bc
       -0.069198914 -0.009417747 0.061145958 -0.020625813
000110 db 06 eb bc 1b 62 93 bd f8 08 9b 3c c7 7a b3 3d
       -0.028689792 -0.071964465 0.018925175 0.08763652
000120 bb bd 91 bd 3a 20 2e bd fc 96 ee 3c bc 28 95 3b
       -0.07116266 -0.042511202 0.02912473 0.004551975
000130 9e 06 53 3d c5 7b 9b 3c d9 44 a1 bd 83 fd 1d 3c
       0.051519983 0.018979916 -0.0787446 0.009642961
000140 69 db 11 3d ac 01 91 3d 8a 52 74 3c c0 e6 cf bc
       0.035609636 0.07080397 0.014912257 -0.025378585
000150 a8 f6 e4 3d dc ba 09 3d 6c 90 6b 3c 8e 3a 32 bd
       0.111798584 0.03362547 0.014377695 -0.043512873
000160 5e fd 84 3d 5e 32 c1 3d bd e5 0d 3d 66 9d 14 bd
       0.064936385 0.09433435 0.034642924 -0.03628292
000170 d7 a0 19 bd 1d 4e d7 3b 47 74 14 3c e0 95 b0 bd
       -0.037506904 0.006570591 0.009060926 -0.086223364
000180 85 7e 2c bd 17 87 5e bd 6c 7b ab 3c 48 d1 9b 3b
       -0.042112846 -0.05432805 0.020932876 0.004755173
000190 3f 37 30 3d e7 68 85 3d 38 89 13 bd f7 38 21 bd
       0.043021437 0.06514149 -0.036019534 -0.039360967
0001a0 03 b8 50 bc 83 7a 02 bd ba 3a 02 bd 8a e3 bf bd
       -0.012739184 -0.031855118 -0.031794287 -0.093695715
0001b0 db 1c a1 3c b0 8c 2f bd 30 05 88 bd 1a ca 72 3d
       0.01966708 -0.04285878 -0.066416144 0.05927477
0001c0 6f 76 53 3d 6f 5d 3d 3d e6 8e 25 3d cb 5a c2 3d
       0.05162662 0.046231683 0.04041948 0.09489974
0001d0 7c 4c 6c bd 75 97 c5 bc f9 d9 de 3d 50 97 e2 3c
       -0.05769013 -0.024120072 0.10881419 0.027660042
0001e0 a0 86 13 bb cd 21 a3 3c eb f4 0c 3d 10 2f 50 bd
       -0.0022510663 0.019913578 0.03441326 -0.050826132
0001f0 83 86 81 3d ec 9d 08 bd bf be 3e bd 3a ad 03 3d
       0.06324484 -0.03335373 -0.04656863 0.032147624
000200 14 fa e1 3c 9d 63 3a bd e6 d2 ca 3c 25 23 98 3d
       0.027585067 -0.045505155 0.024758767 0.07428578
000210 0f bb 83 3d a1 a1 f3 3c fd 88 c2 3d b7 ba 77 3d
       0.06432163 0.029740157 0.09498785 0.0604808
000220 53 5d 6b 3c 2e 98 03 3d 1c 58 6c 3d 55 e7 1c bd
       0.014365512 0.03212755 0.057701215 -0.038306553
000230 4a 33 6e bd bd 20 5d bc 24 7d a9 3d 45 8c 3b bd
       -0.05815438 -0.013496575 0.08275822 -0.04578807
000240 80 5d ae 3c 6d 2a 6c bd 90 62 46 3a cb d9 39 3d
       0.021284819 -0.057657648 0.00075677875 0.04537372
000250 8d 7c 03 bd 73 74 75 bc e5 7d 94 3d 81 6b 90 bb
       -0.032101203 -0.014981377 0.07250575 -0.0044073467
000260 db b5 78 bd 32 9e 98 bd f7 38 22 3d 7e e0 9a 3d
       -0.060720306 -0.07452048 0.039605107 0.0756235
000270 91 88 69 bd 29 03 74 3c 9b 1e 00 3d 8b 37 da 3b
       -0.057015005 0.014893332 0.031279188 0.0066594533
000280 5a a6 60 3c bd 22 29 3d 61 dd 3b 3d 86 f5 60 3d
       0.013711536 0.041292895 0.04586542 0.05492165
000290 9f 1e 0a 3d 84 04 63 3d c4 1a 62 bd f2 a3 be bc
       0.03372061 0.05542423 -0.055201307 -0.023271535
0002a0 20 4e 78 3d 4e 40 8a bd 4f cd 39 bc 63 7b 43 bd
       0.06062138 -0.067505464 -0.011340453 -0.047725093
0002b0 d4 b8 75 bd 76 8d 63 bb 25 e5 c6 ba 63 10 da 3c
       -0.05999072 -0.0034721768 -0.0015174492 0.026619142
0002c0 93 3d 48 3d f2 b4 bd 3b 46 24 d3 bc 44 8e ce 3d
       0.048886847 0.0057893926 -0.025774132 0.10085729
0002d0 78 78 a0 3d ba 06 a1 bd ce 8b 81 bd 76 d8 42 3c
       0.078354776 -0.07862611 -0.06325494 0.011892429
0002e0 aa b2 a7 3d 9d 12 10 3d 70 3d ec 3d ab df 1a 3b
       0.08188374 0.035174 0.11535156 0.0023631852
0002f0 d1 94 af bd 0d 51 a7 3b 55 c6 b9 bc 93 d5 93 3d
       -0.08573306 0.0051060976 -0.02267758 0.072184704
000300 57 d5 1f bc d5 8d bb bc 16 3a ca 3d 8f 19 a2 3d
       -0.009755454 -0.02289478 0.0987436 0.07915031
000310 b6 72 60 3d 55 b0 a8 bc e6 02 91 3d 82 09 8d 3d
       0.054796897 -0.020591894 0.07080631 0.06886579
000320 db f8 74 bd 1c 7a 45 3c a1 35 bc 3d 1d 8d 8d bd
       -0.05980764 0.012053039 0.091899164 -0.06911681
000330 92 8a c8 3d 26 c5 8f 3d 8b 3a 9b bd 00 88 64 bc
       0.09792055 0.07020025 -0.075795256 -0.013948441
000340 d5 b6 1e 3d 52 ee 6f bd d2 cd 51 bc 94 26 9a bd
       0.03874858 -0.05857689 -0.012805419 -0.075268894
000350 72 e4 94 3d c4 27 95 bd a1 a1 9c 3d 90 12 c1 bd
       0.07270135 -0.07282975 0.07648016 -0.09427369
000360 ad 01 89 3d 8c 17 53 3b a8 7c 11 bd 32 08 2a bd
       0.06689773 0.003221008 -0.035519272 -0.041511722
000370 a9 34 28 bd 23 79 b6 3d 55 f4 8c 3d da 74 30 3d
       -0.041065846 0.08909824 0.0688254 0.04308019
000380 25 c6 0a 3d 8c 1b 2b 3c d3 c5 90 bd 7d de ea 3c
       0.03388037 0.010443579 -0.07068982 0.028670544
000390 44 cd 14 3c 12 72 22 bb 5a af 0b 3d 78 4a 70 3d
       0.009082142 -0.002478723 0.034102775 0.05866477
0003a0 71 6c 62 3d 9d 9e 9a bd 4e 75 90 3d 12 35 27 3d
       0.0552792 -0.07549784 0.07053624 0.040822096
0003b0 c3 37 30 bc bd 7e 22 bd 0f 5c ea 3d 75 46 85 bd
       -0.010755482 -0.03967165 0.1144334 -0.06507579
0003c0 c2 5f 97 bd 70 a9 a7 3d af 90 7e bd 05 dc 8d 3d
       -0.07391311 0.081866145 -0.0621497 0.06926731
0003d0 e4 44 32 3d 17 91 a9 3d c4 98 88 bd 4e 12 be 3d
       0.04352273 0.08279627 -0.06669763 0.09280835
0003e0 8b 88 d9 3d ca 56 08 bc 15 3d 93 3d 11 b8 1d bd
       0.10621747 -0.008321473 0.07189385 -0.038505618
0003f0 88 2d a4 bd 10 53 ce bc 1a e6 e7 bc 5d af 24 bc
       -0.08016497 -0.025186092 -0.028307963 -0.0100515755

output.weight f4 [1, 512]
000000 55 9c 17 3d 77 e6 8b bd 0d 77 4d 3d 78 76 f0 bc
       0.037014324 -0.06831067 0.050162364 -0.029353365
000010 07 32 01 bd a8 4a 65 3d 49 38 a7 3d 52 aa 37 3c
       -0.03154185 0.0559794 0.081650324 0.011210041
000020 a3 14 64 3d 5e 92 54 3d 38 5b 9b bd f0 69 cf 3c
       0.055683743 0.0518974 -0.07585758 0.02531907
000030 53 6f 67 bd 82 6c d7 bc 0c 7a dc bc 7b b5 7c bd
       -0.05650265 -0.026296858 -0.026913665 -0.06169651
000040 33 4d 46 3d b3 73 a1 3d 92 38 90 bc 21 f6 66 3d
       0.048413467 0.07883396 -0.0176051 0.05638707
000050 da d5 81 bc c8 11 d2 3c 0f 05 92 bd 2a 4c 6f 3d
       -0.015849043 0.025643244 -0.07129871 0.058422245
000060 11 92 37 3d f3 1b e4 bc 53 90 83 3d 72 6a fc bc
       0.044817034 -0.027845358 0.06424012 -0.030812476
000070 04 6d 9f 3c 20 3d 3d bd 9e 62 37 bd 50 79 75 3d
       0.019461162 -0.04620087 -0.044771783 0.059930146
000080 ca cd d6 3c 02 85 4f 3c ef 4e 26 3d 9c 46 46 3d
       0.026221175 0.012665989 0.04060262 0.048407182
000090 ea 0c 4e 3d 9e b1 8c 3d 42 74 3b 3d 56 dd 43 bd
       0.050305285 0.06869815 0.04576517 -0.047818504
0000a0 4f 49 d4 3c fb 7a a4 3d 7b 52 31 bd 1b bf f1 bc
       0.025913863 0.08031269 -0.04329155 -0.029510072
0000b0 af 34 75 bd 21 31 34 bd 74 38 e8 bc cb 66 db 3c
       -0.059864696 -0.043992165 -0.028347231 0.026782414
0000c0 3b 86 09 bc 92 b3 4c 3d 05 62 48 bd ad 25 aa 3c
       -0.008393819 0.04997594 -0.048921604 0.020769918
0000d0 8c 9e e9 3c 06 0a 1f bd d5 01 5d 3d 38 f8 9c bd
       0.028517984 -0.03882792 0.053956825 -0.076645315
0000e0 34 56 bd bd 9b d0 4a bd 24 8b 38 bd 8d db 81 3d
       -0.092449576 -0.049515348 -0.04505457 0.06340704
0000f0 67 e9 0b 3e ed 27 fc 3c d2 3d 8b bd 26 fa e6 bd
       0.13663255 0.030780757 -0.06798901 -0.11278181
000100 1a b8 13 bd 57 dd 1c bd 8f e8 35 3d 0a 2e a1 bd
       -0.036064245 -0.038297024 0.04441124 -0.078701094
000110 99 39 b1 3d 4b b5 6d bd 20 14 04 3d a5 8a 2e 3d
       0.08653564 -0.058034223 0.032245755 0.04261269
000120 4f 6a 65 3d ec 6f b2 bc 7a 44 d9 3c cc d7 89 3d
       0.056009587 -0.021781884 0.02652191 0.06730613
000130 55 7b 4a bd 4b 23 b7 3c 7b 93 8e bd 5e aa 67 bd
       -0.049434025 0.022355696 -0.069617234 -0.05655896
000140 10 f1 2f 3d ba b0 01 3d 96 ab 5e bd 7f a6 8d 3d
       0.042954504 0.03166268 -0.054362856 0.06916522
000150 13 39 65 3d b1 5e 97 bd cd ed 6a bd bf 8f 49 3d
       0.055962633 -0.07391108 -0.05735569 0.049209353
000160 4b e1 f9 3c 97 31 4e 3c f3 50 81 3d 0c 9c 17 bd
       0.030502936 0.012585065 0.06314268 -0.037014052
000170 74 a0 b2 bd 53 c0 a7 3c af b4 a5 bd 36 b6 66 3d
       -0.0872201 0.02047745 -0.08091103 0.056326114
000180 1a 40 9c bd df c0 61 3d 22 ac a4 bd 89 fb 56 bd
       -0.07629414 0.055115577 -0.08040644 -0.052485976
000190 e2 ce 00 bd d3 41 d2 3d 7c 27 9b 3d 2b c9 20 bd
       -0.0314473 0.10266461 0.075758904 -0.03925435
0001a0 12 b0 59 3d 66 56 93 3d 5a 5e 1e bd 8b 74 0a bd
       0.05314643 0.071942136 -0.0386642 -0.03380255
0001b0 7e 26 d3 bd 9b 6a 5f bd 8f d2 dd bd 27 c4 24 bd
       -0.10310076 -0.054545026 -0.108311765 -0.040226128
0001c0 e4 7e bb bc 69 86 b8 3d a1 a4 2b 3d 15 b8 aa 3c
       -0.022887655 0.09010012 0.04190505 0.02083973
0001d0 24 f5 1f bd 98 3c 83 3d d5 85 8b 3d ed f5 51 bc
       -0.039052144 0.06408042 0.06812636 -0.012814981
0001e0 b7 4f d6 3c 29 af 33 bd 76 00 26 3d 1c a1 4e bd
       0.026161058 -0.043868218 0.040527783 -0.050446615
0001f0 bb 89 c0 3d 1e 95 5a bd 18 0d d0 3d e2 52 3b 3d
       0.0940127 -0.053364865 0.101587474 0.04573334
000200 0e fc a3 3c 42 0e 18 3d 40 73 98 3d 67 41 31 3d
       0.02001765 0.037122972 0.07443857 0.043275263
000210 52 4e 8d bd 4b 1f 96 3c 0c 62 70 3c ea fe 2d 3d
       -0.06899704 0.018325469 0.014671814 0.042479433
000220 b9 f1 d0 bc f1 4b dc bd 36 0a a7 3b 67 54 3a bc
       -0.025505887 -0.10756672 0.005097653 -0.011372662
000230 38 a9 81 3d ec d2 ea bc d4 a0 9f bd 0b cc 0a 3c
       0.06331104 -0.028665029 -0.077943474 0.008471499
000240 79 f9 81 bc 2f a2 1c 3d f8 93 e4 3c c5 d9 8d bc
       -0.015866028 0.038240608 0.027902588 -0.017315755
000250 5e 89 52 3d 3e 6f bf 3b 2b ce 7d bd 0a e3 21 3d
       0.051400535 0.0058421185 -0.061964195 0.039523162
000260 41 2c 59 bd 2e 2e bf 3d b4 9d 2d 3d 43 87 09 3d
       -0.05302072 0.0933498 0.042386726 0.03357626
000270 ab d4 54 3d c2 48 9d 3c c4 91 c1 bd 7b ab 94 bd
       0.05196063 0.019199733 -0.09451631 -0.0725927
000280 32 12 ff bb ef 0c 3e bd 0f e5 b7 3c d6 e4 8a 3c
       -0.0077841515 -0.046399053 0.02244809 0.01695482
000290 2d c8 33 3d 50 fa f6 3c fb 51 9e 3d 85 1f c2 3d
       0.043892074 0.030148655 0.0773048 0.09478668
0002a0 df 60 87 bd 67 b7 69 bd 88 b6 7f bd 8a ad a5 bd
       -0.066102736 -0.05705967 -0.062429935 -0.080897406
0002b0 78 43 dd 3c a4 10 cc bd 29 1f 1b bd b4 13 e9 bc
       0.02700971 -0.099641114 -0.037871514 -0.028451778
0002c0 69 a0 f3 bc 41 35 98 bc 90 a8 a6 3d 29 f9 f8 3c
       -0.029739575 -0.018580081 0.081376195 0.030392246
0002d0 83 1c 8b 3d de fe fe 3d 7a 1d e5 3c fe 9e b4 bc
       0.067925476 0.12450956 0.027968157 -0.02204847
0002e0 c7 04 0c 3d 4e 8f c9 bc 3a b2 47 3d c7 b6 8d bd
       0.034184244 -0.024604466 0.048753954 -0.06919628
0002f0 b9 db 13 bd d6 08 39 bd 95 84 e1 bd 3a 75 d5 3c
       -0.036098216 -0.045174442 -0.11011616 0.026056875
000300 c6 59 b3 3d 50 51 ba 3d 44 0c 12 3d 19 ed 1f 3d
       0.08757357 0.090975404 0.03565623 0.039044473
000310 de e1 41 3d 8b 57 b0 bc f6 65 48 3d be 03 5a 3d
       0.047334544 -0.021526119 0.048925363 0.053226225
000320 45 1c f3 3d 85 90 db 3c e1 33 1b 3d 28 01 63 3d
       0.11870626 0.02680231 0.037891272 0.055421025
000330 f9 74 fa 3c 56 c3 3b 3d dd 31 25 3e ac 3a 73 3d
       0.030573355 0.045840584 0.16132303 0.059382126
000340 d9 32 2a bd e7 3f d2 3d 48 23 46 bd 73 dd d1 bd
       -0.0415524 0.10266095 -0.04837349 -0.10247316
000350 c6 00 98 bd 92 06 95 bd e5 0d 0b 3d 60 87 3a bd
       -0.074220225 -0.07276644 0.033948798 -0.04553926
000360 f5 7d 5b 3c 26 d1 5f bd ae ce 74 3d d4 51 9d bd
       0.01339673 -0.05464282 0.059767418 -0.07681623
000370 bc 82 18 3d fa 78 a9 3c f6 8c 69 3d ab 99 7c bd
       0.037234053 0.020687569 0.057019196 -0.061669987
000380 93 3b 45 bb 50 dd 64 bd 14 d3 ab bc b5 b7 0b bd
       -0.0030095323 -0.055875123 -0.020974673 -0.034110744
000390 ba 95 d9 3c 3c f0 d1 3c de d6 4a bd 10 24 75 3d
       0.026560653 0.025627248 -0.04952132 0.059848845
0003a0 14 27 1b bd 32 71 8b bd 0c 73 c8 3d 52 91 a7 bd
       -0.037879065 -0.068087 0.097875684 -0.081820145
0003b0 c7 3c 22 bd b6 79 9b 3d a7 7d 8e 3d f8 39 cc 3d
       -0.039608743 0.07591574 0.0695756 0.09971994
0003c0 e5 73 7d bd 70 6c e1 3c d1 0e 37 3d 44 8d 79 3d
       -0.061878104 0.027517527 0.044691864 0.060925737
0003d0 57 02 39 bd 7d a8 27 3d a0 f2 f1 3c cb 61 d3 3c
       -0.045168247 0.040932167 0.029534638 0.025803467
0003e0 0f 81 25 3d 44 5a 85 bd e8 48 e0 3d 9d 27 55 bd
       0.040406283 -0.065113574 0.10951406 -0.05203973
0003f0 06 e1 9c bc 88 66 68 3d 5c 86 82 bd 72 de 8b bd
       -0.019150268 0.056738406 -0.06373283 -0.068295375
